old_models_weather/wildfire_nn_weights15.pth (torch, 13578 bytes, 5 tensors)

model.0.weight f4 [64, 8]
00000000: f095 923b 5a55 34be 63b1 693e 4fe5 02be
00000010: 4417 2d3e 9764 c4bd 52a8 92be 1ab4 b1bd
00000020: 810e 6c3e 227c a3bd 2cf8 04be 4fd2 33bd
00000030: 4934 573e b9f9 46be 9d57 473e e41d 2ebd
00000040: 0eed e43d af77 753e 581a bf3d 3f75 913e
00000050: 3cba bebe 3a30 d73e b63a 7abe 84ac 2cbd
00000060: ba00 073e 4ea8 9b3e 90bc 803e 3388 c73e
00000070: 06bf 23bc 0eac a73e f612 79be 9829 e33c
00000080: a3e8 10bf 966b 36be 77f6 21bc 336a 98be
00000090: 2596 d63e 4318 283e 6991 783e 7e35 2ebe
000000a0: 25bd ef3d 0adb 043d 2b9f b53d 0594 513e
000000b0: 2c52 7b3e 53bf b73e 5314 a1be 4f80 363d
000000c0: 5990 0b3e 64d8 a73d 8db6 59be 9404 fc3d
000000d0: 8f25 aabe 9190 5dbd 5718 86be 1376 a8be
000000e0: 71c5 96bd 2a0f 0abe 0d75 3e3e b78a b2be
000000f0: 7d39 80be ccf9 6f3d de87 d0be 8999 2ebe
00000100: 040e e33e a676 593e 143f 483d fa38 483e
00000110: b8d0 823d 96eb d53d 0fc7 d13e 6787 9fbe
00000120: b43a c63d 6ff6 dcbd 4172 5abe 2d0c 643e
00000130: 4a1a f53e deaa 583e 9e9d bbbe 4c00 ac3d
00000140: 93dd bebe 9387 6c3d 9a5f 843e 28b6 d73e
00000150: 562c 58be 052b da3e 0882 1fbe 8f84 6c3e
00000160: 6689 91be 412b 003e 86d0 e2be ec9f 003d
00000170: 8be7 a0bd aff5 4abe 73d6 11be b27c 723e
00000180: c9ca db3d 7fe6 e63d 1f00 023d 79da d7bd
00000190: a4dc 343e 1ce1 bd3e 0015 153d b327 cf3d
000001a0: 2e46 17be a23a f5bc d55a 8a3d e903 973d
000001b0: 0718 943d 3954 d43e 5d35 8c3e 9af1 d2bd
000001c0: 607d 16be 72b0 76be a5fe d0be 1564 27bc
000001d0: 79ad 30be 647e 29be 4cd0 16bd 8c0b 9bbe
000001e0: 8783 b83e 5fa7 c53d 502f 93bd f4fc 12be
000001f0: d382 4fbe 4e06 c1be 8b07 383d ae4d 5bbe
00000200: 2f52 0c3d ceec 53be 8da3 763e f612 abbe
00000210: 0600 cb3e 383b c33d b4b4 a2bd 552e d73d
00000220: 5fa7 133f 6da4 40be 261c 29bd 1c83 8fbd
00000230: f41b 293e 436f 9dbe ead9 79be d213 673d
00000240: c200 99be 4409 67be da26 75bd 78d2 07be
00000250: 4d98 b6be 639d ffbd fd9d 48be be66 363e
00000260: 4bf2 94bd 2861 9f3e a202 71bd d8ec 383e
00000270: b5d7 be3d 45d0 c8be cbe3 753e a652 e1bd
00000280: cb1c d0bd 69c4 d3be 1671 dfbd 4b14 fabc
00000290: 774e 9ebd e764 38be 452e f73d 46b6 8bbc
000002a0: b335 b43e 81bb 8c3e 45c0 443e 7968 05be
000002b0: e3e7 883e 20b5 903e 418b 0e3e ec44 733e
000002c0: 4c31 b6be 3fbd 103f 28ef 80be 42b2 1fbe
000002d0: 4cae aebe 6d9f 32be 413e a8bd e5cf 2a3e
000002e0: 11a0 e4bc 1ba9 99be 3e40 75be 5d77 a53e
000002f0: 961e 09bd 3d9c dd3d b15a c0bd 9cda 2abd
00000300: 5137 a7be 7367 0a3d 95c7 0e3d d0b0 a03e
00000310: a5ba 9cbd 48f8 b53e 16e6 843e 225b 29bd
00000320: c4ea 3ebc db9c 48bd 9ec8 0f3e 04d3 d93c
00000330: 3a76 c53e 882c 72be baa9 623d a801 edbc
00000340: 36dd d6be 53fb b6bc e277 38bd 1261 98be
00000350: 3b46 67bc 717a 02be cdc8 683d 20fe 203e
00000360: c21b 60be 6df9 bbbe 5c99 0e3e 4a5e a7bd
00000370: 5154 97be 8f51 4fbe 46d8 8dbd d069 873c
00000380: 0a58 a13d ca12 ed3e 1699 953d 6173 623e
00000390: 838c 4d3e cccc 023e deac 6dbe 059f 13be
000003a0: 82ae 8f3e 4ff3 1dbe 8cde ba3d cfe7 96bd
000003b0: bf65 2bbe 4aca 3bbd 4599 3abe 2dec 20be
000003c0: bebd 1c3f 450e 993b edba b03c dfc4 18be
000003d0: a052 3c3e 5fad 70bd b053 aebe cf7f b8ba
000003e0: 8672 02bf 2e6d 233b 215c 203e a96b f1bd
000003f0: 05fc cdbd 9a8f 05be 872d 1f3d 819f 51be
0.0044734403 -0.17610684 0.22821574 -0.12782787 0.16903406 -0.095894985 -0.28644043 -0.0867693
0.23052408 -0.07982661 -0.12985295 -0.043901738 0.21016039 -0.19431199 0.19467016 -0.042508975
0.11178027 0.23971437 0.093311965 0.28409764 -0.3725146 0.4202898 -0.24436459 -0.04215671
0.13183871 0.30401844 0.25143862 0.389711 -0.009994274 0.32748455 -0.2432364 0.027729794
-0.56604975 -0.17814478 -0.009885422 -0.29768524 0.41911426 0.16415505 0.2427422 -0.17012593
0.11705998 0.032435454 0.088682495 0.20466621 0.24543065 0.35888156 -0.3146082 0.04455596
0.13629283 0.0819557 -0.21261044 0.12305561 -0.3323178 -0.054092947 -0.26190445 -0.32902583
-0.07361878 -0.13482347 0.18599339 -0.34871456 -0.2504386 0.058587834 -0.40728658 -0.17050757
0.4434663 0.21236667 0.04888828 0.19552985 0.06387466 0.10445325 0.40972182 -0.3115799
0.096791655 -0.10789191 -0.21332647 0.2227027 0.4787162 0.2115893 -0.3664369 0.08398494
-0.37278423 0.05774648 0.25854188 0.42131162 -0.21110663 0.42610946 -0.15576947 0.23097442
-0.2842514 0.125165 -0.44299716 0.031402513 -0.07856663 -0.19820283 -0.14241962 0.2368038
0.107320376 0.112744324 0.031738397 -0.10539717 0.17662293 0.37085807 0.03639698 0.10114994
-0.14772865 -0.029935185 0.06755606 0.07373793 0.07231145 0.41470507 0.27384463 -0.10299988
-0.14696264 -0.24090746 -0.40819278 -0.0102167325 -0.17253675 -0.1655212 -0.03681974 -0.30282247
0.36037847 0.09651064 -0.071867585 -0.14354306 -0.20264749 -0.37700123 0.04492907 -0.21416351
0.034258064 -0.20695803 0.24085827 -0.33412904 0.39648455 0.095327795 -0.07944623 0.10506884
0.57677263 -0.18812723 -0.04128661 -0.07007429 0.1651457 -0.30748948 -0.24399534 0.056415386
-0.2988339 -0.22562128 -0.059851505 -0.13263881 -0.3566307 -0.12481191 -0.19591518 0.1781263
-0.07272776 0.31128812 -0.0588404 0.18059099 0.093184866 -0.39221397 0.24012677 -0.11002092
-0.10161742 -0.41360787 -0.10910241 -0.030527255 -0.0772981 -0.18007241 0.12069372 -0.017054688
0.3519722 0.27486804 0.1921397 -0.13028134 0.26739416 0.28263187 0.13920309 0.2375676
-0.35584486 0.56538767 -0.25182462 -0.15595344 -0.34117353 -0.17443629 -0.08214999 0.16680868
-0.027908357 -0.3001183 -0.23950288 0.3231763 -0.033476435 0.10820816 -0.09392298 -0.04171239
-0.3265939 0.033790063 0.034858305 0.31384897 -0.07652787 0.35540986 0.25956792 -0.041346677
-0.011652652 -0.048977714 0.14041373 0.026589878 0.38566762 -0.236498 0.055337645 -0.028931454
-0.41965646 -0.022336638 -0.045036204 -0.2976156 -0.014115865 -0.1274202 0.056832124 0.15721941
-0.21885589 -0.36713734 0.1392569 -0.08172281 -0.29556516 -0.20245956 -0.069260165 0.016529948
0.0787812 0.46303397 0.073045895 0.22114326 0.20073132 0.12773436 -0.23210475 -0.1441613
0.28062826 -0.15424846 0.09124479 -0.07368433 -0.16738032 -0.045847215 -0.1822253 -0.15715094
0.61227024 0.0046708905 0.021573508 -0.1491885 0.18390894 -0.05875909 -0.34048223 -0.0014076176
-0.50956 0.0024936902 0.15660144 -0.11788113 -0.100578345 -0.13043061 0.038861778 -0.20471002

model.0.bias f4 [64]
00000000: 117c eb3b 1056 863e 3071 babc 3235 65be
00000010: dcd8 893e 8427 003f 0e54 763d bdeb 13bd
00000020: 935e 4bbe 2dae e73a 0846 42be df75 7d3d
00000030: e508 c83e 47b5 90bd 9bc4 93bd 64de ad3d
00000040: 35ac f1bd 9f95 d2be cc7d 9f3e bbe3 c4bc
00000050: 9a6c 563e fb20 c73d 5272 043d 2247 f5be
00000060: c88c 3fbe b206 703d 646a 0fbd 496d 0cbf
00000070: 289f 4cbe 72cb aa3e 0137 013e ea6d 643e
00000080: 0ba1 fc3e 6a21 583e 167a 9fbe 005d 963e
00000090: 4be2 bfbe 9be1 12bd 4e0e 083f 5f0c 5bbe
000000a0: aa0c fbbe 0195 ee3d d642 c0bd 63ec 3c3e
000000b0: 16cc b93e d729 d63e 34af fabd 1569 4bbc
000000c0: b1da 683e 432f 3e3e 0b60 413e 8087 673e
000000d0: d9e2 013d acf2 9b3e fc25 9f3e 67ae 85be
000000e0: a4e9 e53e b699 00be 1b8e 9ebe 6334 6fbe
000000f0: 7d13 43be 22fc d1be ec35 cfbe cb02 d7be
0.0071864207 0.26237535 -0.02275905 -0.22383574 0.26923263 0.50060296 0.060138755 -0.03611349
-0.19860296 0.001767581 -0.18972027 0.06187999 0.39069286 -0.07065826 -0.07215234 0.08489683
-0.11800424 -0.41129777 0.31150663 -0.024034372 0.20939866 0.097230874 0.032335587 -0.47905833
-0.18706048 0.058600135 -0.03501357 -0.54854256 -0.19982588 0.3335834 0.12618639 0.22307554
0.49341616 0.21106496 -0.31147832 0.29367828 -0.37477335 -0.035859685 0.5314683 -0.21391438
-0.490331 0.11649514 -0.09387748 0.1844955 0.36288518 0.41828796 -0.122404486 -0.01241519
0.22739674 0.18572716 0.18884294 0.22610283 0.03171048 0.3045858 0.31083667 -0.2610962
0.44904816 -0.12558636 -0.30967793 -0.23359828 -0.19050403 -0.41012675 -0.40470827 -0.41994318

model.2.weight f4 [32, 64]
00000000: 72fa ce3d 2e6f cbbc aadd 353e b7cf 82bc
00000010: 37fe a7be a45a d33d 1365 c23d 9ed3 0ebe
00000020: d815 023d 5afa 7d3e 8a66 2cbe 3566 2e3d
00000030: 9215 cabd a9a8 9abd 77e8 0c3e 83d5 52bd
00000040: b3b6 e53c 2e19 233e b09c 36bd d5e3 c7bc
00000050: 4023 99bc 3ce4 e13c 8019 a6bd ad70 ee3d
00000060: 44c7 4ebd 4239 d73c 1abc 683d a7c1 2e3e
00000070: 9c47 393e ce34 a73d ee2a a13b b8c2 9bbe
00000080: a48a c13d fba0 843e a9ce 0b3e ef09 00be
00000090: e402 d23d e0af 0ab9 fcc1 12be f76e 833e
000000a0: 3fef 2cbd 684f 013e 1681 543d c7f7 343d
000000b0: 5cc7 19be c0c0 353d d975 d7bb 0371 913c
000000c0: 83ff 4dbd 315e 7c3d e047 37bd 27f0 e03d
000000d0: f5bf 413d fd73 753b c5cd 22be 1722 ecbc
000000e0: bcdb 1f3b 19e2 a4be 9f61 cabb 9797 e5bd
000000f0: c767 d3bd b49d 01be 11bb 9c3d e721 d73d
00000100: 180d d63d 159f 61bd b0af 33be 7a95 08be
00000110: 2093 e33d 5b0f 153d 6174 8e3d 3200 07bd
00000120: 67a8 e8bd b27f 5c3c 591b ddbd cc09 d93b
00000130: 9251 21bc 3992 9dbd 0203 00bd 32fd cdbd
00000140: ed24 14bd 5ceb 01be 4f63 d33d 2817 66bc
00000150: 69e5 a73c d01c cabd fa14 53be f1e6 713c
00000160: 15d5 71be a636 9d3c ee4a b0bd 01c8 25be
00000170: 85a3 a0bd 2d7f 163d 937e 19bd d896 cebc
00000180: 7b6b 233e 63c9 a33d 3ee8 90bd 9dff 7fbc
00000190: 3449 87bd be42 d03d 1ebd 053e a608 8dbe
000001a0: e96d 33bc 81aa d73d 5740 35be e9e5 ffbe
000001b0: 27de 0dbc 531e 8d3d 4fe2 153d f2e9 1b3d
000001c0: 112e 6bbc 0180 4a3d bcb5 7cbe 1617 073d
000001d0: 5ed0 a9bc a5b3 5d3d 5436 8ebd d47a 5fbd
000001e0: 7f15 a1bd 1398 bebe cf85 1abe 9b9f b93c
000001f0: 5c40 78bd a29c 62bc a562 b0bd 2137 37bc
00000200: e92c af3d ae87 143d b751 15bf 408f 95bd
00000210: 27ce a43d ac0b 0b3e b128 593d ca8b 113c
00000220: cdb7 2fbc c07a 693d 343c 8abe 6a4a 45bb
00000230: 08f4 153d 2cc7 923d c0d2 543d 2379 d73c
00000240: 09f2 163d 08b3 8dbe d723 6a3d 52d8 febc
00000250: 9e4b 343e fc6b 25be 04b7 a0bd bbf2 54be
00000260: 07b7 3bbd 1fa6 a53d 433f 80bd f918 a6bd
00000270: 2ff0 b03d 3b23 05bd 7c04 efbd 6075 80bd
00000280: a746 8a3d 30d6 d73d 304c 9abd 9967 493c
00000290: ef46 a8bd 10fa 48bb 362f 9b3d 4bc5 a9be
000002a0: 1c64 02be e330 b2bc bd85 85be 24c3 3abe
000002b0: 0ec4 dd3c d02f 1a3e c5a2 8f3c 5fd0 023c
000002c0: cda7 d1bd 44e5 1fbd d907 35be ce2d 39bc
000002d0: 2d76 f03d b651 433d 34b1 2abd bcb3 45be
000002e0: 2f85 cf3d db4f 2dba d372 05be 95f8 46bd
000002f0: 4d74 25be c1a5 93bc 7526 9dbd 840a 3c3d
00000300: 49cf 9ebc 95f2 66bd 5f50 debe 6fd4 30be
00000310: 92c3 0e3e 4151 c43d 91e7 a43d cf95 693c
00000320: 1c3a 0cbe b463 d53d bd26 08be bf0f e9bd
00000330: 87c0 423b 7794 18bd 9f53 c2bd f227 72be
00000340: b4cd a63b 182a 8ebe 8fe4 ce3b a9ac 49be
00000350: edf4 943d 053f f7bd 5ba6 80bd cfba babd
00000360: 7ad7 c2bc bf93 353d b203 c5bc 2c20 bfbd
00000370: d729 29bd 9313 7d3d ca5d b8bc bf8c 73bd
00000380: 517e 6abd 556a 093e e1c9 54bd 7d52 433e
00000390: bdb6 9abc f0b0 19bb 3b3a d53d 44b9 a9be
000003a0: d245 b3bd a9d8 19bb cc5d afbe afe3 bbbe
000003b0: a2bd 0c3e aceb dd3d 634b 903d 9526 213d
000003c0: 7ae1 20bd 9561 c93c df9a 5cbe 3f9a 8a3d
000003d0: cade f93d 1f35 9fbc 3725 93bc 9527 833c
000003e0: 5ef2 5f3d ab93 2ebe 776b 32be a56c 1cbe
000003f0: 47c4 9bbd 02e8 4c3d 16d3 83bd db78 e03c
0.101063624 -0.024833288 0.1776034 -0.015968187 -0.32811138 0.10320023 0.094919346 -0.13947913
0.031759113 0.24802533 -0.1683599 0.04257794 -0.098673955 -0.075517006 0.13760553 -0.051473152
0.02804122 0.15927574 -0.044583023 -0.024400631 -0.018693566 0.027574651 -0.081103325 0.11642585
-0.050483003 0.02627242 0.056820013 0.1706606 0.18093723 0.081643686 0.0049184477 -0.30421996
0.09450272 0.25904068 0.13653053 -0.1250379 0.102544576 -0.00013226224 -0.14331812 0.25670597
-0.04222035 0.12627947 0.05188092 0.04418161 -0.15017456 0.044373274 -0.006575328 0.017754083
-0.050292503 0.061613265 -0.04474628 0.109833054 0.047302205 0.0037453168 -0.15898807 -0.028824849
0.0024392447 -0.3220375 -0.006176188 -0.11210554 -0.10322528 -0.12657815 0.076528676 0.10504513
0.10451716 -0.055083353 -0.17547488 -0.13338271 0.11112046 0.036391597 0.06955791 -0.03295917
-0.11360245 0.013458179 -0.10796232 0.0066234823 -0.009846108 -0.076939054 -0.03125287 -0.10058059
-0.036168028 -0.12687439 0.10321676 -0.014043607 0.020495133 -0.09868777 -0.2061347 0.014764533
-0.2361644 0.019191097 -0.08608042 -0.16189577 -0.07843689 0.036742378 -0.037474226 -0.025218412
0.1595897 0.07997396 -0.07075547 -0.015624908 -0.06605759 0.1016898 0.13060424 -0.2754566
-0.010951498 0.10530568 -0.17700325 -0.49980095 -0.008658922 0.068905495 0.036592778 0.038064905
-0.014354245 0.04943848 -0.24678701 0.032981 -0.02072924 0.0541264 -0.06943956 -0.054560497
-0.07865428 -0.37225398 -0.15090106 0.022659114 -0.060608253 -0.0138312895 -0.08612565 -0.011182577
0.08553488 0.036262207 -0.5832781 -0.073027134 0.08047133 0.13578671 0.053017322 0.008883426
-0.010724974 0.05700183 -0.26999056 -0.0030104169 0.03660968 0.07166895 0.0519588 0.02630288
0.036851916 -0.27675653 0.057163086 -0.031109009 0.1760697 -0.16154474 -0.078474075 -0.2079572
-0.045828845 0.08088326 -0.06262066 -0.08110232 0.086395614 -0.0325043 -0.11670777 -0.062723875
0.06751757 0.105389 -0.07534063 0.012292766 -0.082166545 -0.0030666627 0.07577364 -0.33158335
-0.12733501 -0.021751827 -0.26078597 -0.18238503 0.027071025 0.15057302 0.01753367 0.00798425
-0.102370836 -0.039037004 -0.17678775 -0.011302425 0.1174129 0.047685347 -0.0416729 -0.19306844
0.10132825 -0.00066113257 -0.13032083 -0.04857691 -0.16157646 -0.018023374 -0.07673351 0.045908466
-0.01938595 -0.056383688 -0.43420693 -0.17268537 0.13941792 0.095858105 0.0805198 0.014256909
-0.13694042 0.104194075 -0.13296027 -0.113799565 0.0029716806 -0.037250962 -0.09488606 -0.2364805
0.0050904397 -0.2776649 0.0063138674 -0.19694771 0.072732784 -0.12072567 -0.0628173 -0.09117662
-0.023784388 0.044330355 -0.024049614 -0.09332308 -0.041299667 0.061786246 -0.02250566 -0.059460398
-0.05724937 0.13419469 -0.05195034 0.19074436 -0.018885965 -0.002345141 0.10411497 -0.3314916
-0.087535515 -0.0023475087 -0.3425125 -0.36697146 0.13744214 0.108359665 0.07045629 0.039343435
-0.03927753 0.024582664 -0.21543454 0.06767701 0.12200697 -0.01943451 -0.017962081 0.016010085
0.0546745 -0.17048518 -0.17423807 -0.1527582 -0.07605796 0.050025947 -0.06436746 0.027401378

model.2.bias f4 [32]
00000000: 3561 02be 7f1e 463e d951 773e 50c9 983e
00000010: 7848 463d dcd2 16bd bd85 753d c545 b93d
00000020: af0a e83d 9cbc 06be 8b70 7ebd 4908 6dbe
00000030: 0922 d13d a082 213d c167 4c3d 2895 543e
00000040: 6771 06be a863 393d 9b43 76bd b1da 0ebe
00000050: a0f0 4e3e 3e30 db3d c6c6 b63d 3f00 a83e
00000060: 2f3c 6c3e 2ddf 353e f73b 3ebe 33cf 303e
00000070: 6f42 443e 852c 253e ef5c 0f3e 3727 f3bc
-0.12732394 0.19347571 0.24152316 0.2984109 0.048408955 -0.036822185 0.059941996 0.090465106
0.11330163 -0.13157886 -0.062119048 -0.23147692 0.1021157 0.039431214 0.049903635 0.20760024
-0.13129197 0.045261055 -0.060123067 -0.13950612 0.20208979 0.10702561 0.08924632 0.32812688
0.23069833 0.17760916 -0.18577562 0.1726654 0.19165967 0.16130264 0.14000295 -0.029681785

model.4.weight f4 [1, 32]
00000000: bb74 9e3e f044 96bd 1652 18be 70e2 03be
00000010: bd65 ca3d 8128 52bc 81dc e2bd e9a3 453e
00000020: 627c 3ebe e5be 913c 5615 e7bd 2c78 883e
00000030: b6c4 053d 335f 423e 674d b1bd 5ce9 44be
00000040: 14a5 883e c5f9 59be 693f d93d e996 093e
00000050: b6f0 7cbe 5148 5bbe 65ae 10be cd50 7bbe
00000060: a459 543e dbfc 76be 6391 923e 4236 d53d
00000070: cd68 32be b0ef 21be 8fe1 a4be de3b 253e
0.30948433 -0.073373675 -0.14875063 -0.12879348 0.09882686 -0.01282704 -0.11077214 0.19300808
-0.18602136 0.01779122 -0.112833664 0.26654184 0.0326583 0.18981628 -0.086573415 -0.19229645
0.26688445 -0.21286686 0.10607798 0.13436474 -0.24701199 -0.21414305 -0.14129026 -0.24542542
0.2073732 -0.24119894 0.28626546 0.104107395 -0.17422791 -0.1581409 -0.32203338 0.16136119
