old_models_weather/wildfire_nn_weights.pth (torch, 13568 bytes, 5 tensors)

model.0.weight f4 [64, 8]
-0.3231003 0.038882926 -0.17449139 0.19477381 0.043585807 -0.14446168 -0.46620584 -0.19610102
0.22806112 0.17729604 -0.38854834 -0.19785187 -0.21990022 -0.27691 -0.12550785 0.43629366
0.1562512 -0.37548563 0.307575 0.32111293 0.0646756 -0.22475919 0.18431382 -0.4064611
-0.28323895 0.32285625 -0.27059373 -0.40766516 0.022640858 -0.23061736 -0.41606358 0.41280788
0.31579152 -0.47418576 -0.106982924 -0.36584243 -0.084973104 0.09886679 -0.07644284 0.45826578
-0.10400596 -0.48403305 0.28621787 0.17298448 0.48212057 -0.4679571 -0.28312507 -0.44240507
0.48951742 -0.18654895 -0.48091587 -0.01177998 0.0346231 0.40481082 0.43193144 0.30779913
0.40358147 0.21768633 -0.017967537 -0.057119526 -0.41519523 -0.21802427 0.47078797 0.32614014
0.007358389 0.29372677 -0.42947233 -0.13571997 -0.28134465 0.19680084 0.3504864 0.4655104
0.032655124 -0.046357267 -0.45031348 -0.4423239 -0.33510783 0.17847963 0.46777314 0.16396756
-0.3806413 0.3159537 -0.17213814 -0.44886047 -0.45818895 -0.065675646 -0.38395107 -0.26075578
-0.18191206 -0.1940214 0.28720012 0.08567938 0.44464943 0.3463619 0.19590567 0.4108389
0.43666297 0.20505872 -0.21036874 -0.22334027 -0.17152177 -0.4151304 -0.39286032 -0.41905314
0.38487297 0.10365063 -0.44922101 -0.14902769 -0.04963357 0.43325424 -0.1738211 0.19034293
0.30489752 0.42173737 -0.3987851 -0.08491516 -0.0011020249 0.22130337 0.1932166 0.49050182
-0.0012915363 -0.14112824 -0.10891122 -0.2450951 -0.33324638 0.3013172 0.38718188 0.21050814
-0.15618636 -0.30664754 -0.12800983 0.10230776 -0.33244047 -0.07943179 -0.25580886 0.46141413
-0.07944676 0.23717006 0.3299473 0.35317388 0.33726287 -0.38126373 -0.26145074 -0.17311141
0.22010444 -0.44127 0.3516633 0.029052725 0.37588245 -0.32872352 -0.19150347 -0.12897828
-0.43873507 -0.41056088 0.30293578 0.09872024 0.14155121 -0.4131979 0.007069934 -0.31916693
0.2712607 0.40348428 -0.22313474 -0.09151703 -0.29380462 0.2843478 0.07184785 0.13983871
-0.20001806 0.34421295 0.45475784 -0.1504375 0.06492937 0.46099657 0.46279305 0.47284463
0.21111684 -0.23151825 -0.39909834 -0.22779487 -0.33183402 0.32773286 -0.09641241 -0.3154186
0.24395835 0.1951652 0.23077807 0.065599464 -0.44101745 0.14074159 -0.23618303 0.43722034
0.15571003 0.2973778 0.048657816 -0.38775095 -0.12940113 0.37452427 -0.21303876 0.3482908
-0.09733844 0.20333444 0.1810755 -0.23183365 0.12087675 0.38554648 0.28078836 0.082148686
0.22367825 0.3141793 -0.18062694 0.10846789 -0.32468012 -0.026063977 0.4006339 0.3240212
-0.020868294 -0.13229868 0.16319203 0.3034107 0.07050336 0.07732377 -0.35961193 -0.14438315
0.20721334 0.46004623 0.23261283 -0.33933878 -0.19143212 0.3426094 -0.15584758 0.12110649
-0.3100312 0.36804578 0.15044966 0.24223082 0.19066514 -0.21747498 -0.29371652 -0.17338765
-0.33748975 -0.08783496 0.13190728 0.49095494 0.23144871 0.0669463 -0.07822991 0.41297543
-0.0473294 -0.15673938 -0.41993856 0.27980244 0.36947826 -0.047540493 -0.33723837 0.18219419
00000000: 676d a5be b443 1f3d dfad 32be c972 473e
00000010: 0887 323d c3ed 13be 88b2 eebe b5ce 48be
00000020: db88 693e 188d 353e cfef c6be ae99 4abe
00000030: 862d 61be 26c7 8dbe 2185 00be e261 df3e
00000040: 5100 203e a73f c0be 787a 9d3e ea68 a43e
00000050: a474 843d 4627 66be c3bc 3c3e ab1b d0be
00000060: b204 91be 6a4d a53e 438b 8abe 7db9 d0be
00000070: 5279 b93c f526 6cbe 4906 d5be 8e5b d33e
00000080: 6daf a13e 7ac8 f2be dd19 dbbd b34f bbbe
00000090: 6106 aebd ac7a ca3d 108e 9cbd d0a1 ea3e
000000a0: 1401 d5bd 2ed3 f7be 268b 923e d822 313e
000000b0: 82d8 f63e 1398 efbe c5f5 90be eb82 e2be
000000c0: 07a2 fa3e b006 3fbe 9b3a f6be d100 41bc
000000d0: f4d0 0d3d 5d43 cf3e 1e26 dd3e d997 9d3e
000000e0: 3ba2 ce3e 2ae9 5e3e a830 93bc 2af6 69bd
000000f0: 7894 d4be c141 5fbe 1f0b f13e d7fb a63e
00000100: a41e f13b 5b63 963e cce3 dbbe 2dfa 0abe
00000110: 680c 90be 2986 493e f472 b33e 6157 ee3e
00000120: 61c1 053d 1ee1 3dbd 7d8f e6be 4778 e2be
00000130: 4193 abbe 5dc3 363e f67f ef3e 1de7 273e
00000140: 6be3 c2be afc4 a13e fb44 30be 0ad1 e5be
00000150: be97 eabe f480 86bd 3c95 c4be c881 85be
00000160: 2847 3abe 8cad 46be e50b 933e ac78 af3d
00000170: 17a9 e33e 5956 b13e 7f9b 483e 7a59 d23e
00000180: 4a92 df3e eafa 513e e76a 57be 50b3 64be
00000190: 67a3 2fbe f98b d4be fd24 c9be 228e d6be
000001a0: 120e c53e c846 d43d 4c00 e6be b79a 18be
000001b0: 924c 4bbd 80d3 dd3e 29fe 31be 42e9 423e
000001c0: 871b 9c3e f6ed d73e 902d ccbe 00e8 adbd
000001d0: d271 90ba 5a9d 623e 93da 453e 0e23 fb3e
000001e0: c448 a9ba ec83 10be d90c dfbd 36fa 7abe
000001f0: 459f aabe 3f46 9a3e b43c c63e 728f 573e
00000200: 51ef 1fbe e800 9dbe 0215 03be bb86 d13d
00000210: a335 aabe 22ad a2bd 61f9 82be 793e ec3e
00000220: fcb4 a2bd b5dc 723e daee a83e 35d3 b43e
00000230: b8ad ac3e 0035 c3be dfdc 85be 1e44 31be
00000240: 0f63 613e 24ee e1be 360d b43e fbff ed3c
00000250: aa73 c03e 734e a8be 7c19 44be e212 04be
00000260: e2a1 e0be 0935 d2be 661a 9b3e d62d ca3d
00000270: cdf2 103e ad8e d3be e8aa e73b d969 a3be
00000280: afe2 8a3e 7e95 ce3e 6f7d 64be 486d bbbd
00000290: 8f6d 96be 0996 913e f724 933d e131 0f3e
000002a0: 89d1 4cbe ae3c b03e 05d6 e83e 4a0c 1abe
000002b0: b1f9 843d be07 ec3e 36f3 ec3e b118 f23e
000002c0: 032f 583e 1f13 6dbe 9e56 ccbe 0f43 69be
000002d0: 26e6 a9be 9acc a73e df73 c5bd 8c7e a1be
000002e0: 38d0 793e 63d9 473e 1651 6c3e 0359 863d
000002f0: 0acd e1be 901e 103e f7d9 71be 58db df3e
00000300: 7372 1f3e e741 983e 6b4d 473d 4b87 c6be
00000310: bb81 04be a5c1 bf3e d526 5abe 2c53 b23e
00000320: 6059 c7bd e736 503e db6b 393e cd65 6dbe
00000330: 3b8e f73d 5966 c53e 7ec3 8f3e 923d a83d
00000340: e90b 653e 1cdc a03e 45f6 38be 6a24 de3d
00000350: 793c a6be 1f84 d5bc e31f cd3e 1be6 a53e
00000360: fcf3 aabc 4e79 07be d01b 273e a658 9b3e
00000370: 1164 903d ed5b 9e3d 0e1f b8be 2dd9 13be
00000380: bc2f 543e 2e8b eb3e 0f32 6e3e d0bd adbe
00000390: c806 44be 806a af3e 8296 1fbe ae06 f83d
000003a0: 69bc 9ebe 7f70 bc3e 7a0f 1a3e 5b0b 783e
000003b0: b93d 433e c3b1 5ebe 0362 96be 888c 31be
000003c0: 75cb acbe d1e2 b3bd b412 073e 725e fb3e
000003d0: e400 6d3e 241b 893d 0137 a0bd 8471 d33e
000003e0: 79dc 41bd 4a80 20be 3002 d7be 4442 8f3e
000003f0: 412c bd3e d2b9 42bd 82aa acbe 1d91 3a3e

model.0.bias f4 [64]
0.08657332 0.0069124363 -0.0805368 0.19371939 0.3399433 -0.14275515 -0.027339473 -0.10189974
0.28521156 0.21626022 -0.07200019 -0.174776 0.33868948 0.351469 -0.039529648 -0.19604062
0.33744112 0.3368349 0.12664524 -0.0888441 0.2252055 0.1428137 -0.04456396 0.07383426
0.0882336 0.27478188 0.045654275 0.2584684 0.32030505 0.37289017 0.09452295 0.4226749
0.4758932 -0.15120704 0.066315375 0.29940557 0.05434671 0.31496862 -0.06773692 -0.052497152
0.22041368 0.29651546 -0.13469703 -0.026132405 0.0017975664 0.02068693 0.026029311 -0.04920766
0.27501705 -0.0497832 0.29607594 0.33940277 -0.009628272 -0.1303979 0.38759628 0.09949559
0.017941263 0.42905536 -0.102230914 0.057549175 -0.10437783 0.3144984 -0.20068832 0.05499489
00000000: 5a4d b13d b881 e23b 7af0 a4bd 605e 463e
00000010: 0c0d ae3e 682e 12be 08f7 dfbc d0b0 d0bd
00000020: 4007 923e 5273 5d3e d674 93bd 7bf8 32be
00000030: b568 ad3e bff3 b33e d7e9 21bd dfbe 48be
00000040: 15c5 ac3e a075 ac3e 4aaf 013e e5f3 b5bd
00000050: 459c 663e c13d 123e b388 36bd 6b36 973d
00000060: d1b3 b43d 36b0 8c3e faff 3a3d f855 843e
00000070: 06ff a33e 76eb be3e 4095 c13d d868 d83e
00000080: 46a8 f33e 05d6 1abe 5bd0 873d b04b 993e
00000090: a89a 5e3d 9143 a13e a8b9 8abd 4107 57bd
000000a0: 20b4 613e e0d0 973e 05ee 09be a013 d6bc
000000b0: 529c eb3a a377 a93c 6c3b d53c f98d 49bd
000000c0: 09cf 8c3e 78e9 4bbd 4497 973e 33c6 ad3e
000000d0: e6bf 1dbc 0787 05be 0573 c63e 58c4 cb3d
000000e0: 8ef9 923c 25ad db3e 715e d1bd afb8 6b3d
000000f0: 0bc4 d5bd ef05 a13e 3d81 4dbe 5242 613d

model.2.weight f4 [32, 64]
-0.042582113 0.019671682 -0.048282795 -0.08949581 0.03560947 0.058676623 -0.002541546 -0.12609704
-0.08257774 0.033082936 -0.07954351 0.036084622 -0.06258506 0.022305885 -0.11435454 -0.04837782
-0.075146265 -0.102931626 -0.0066701593 -0.123607166 0.055732638 -0.06924657 0.097079396 0.02844998
-0.08053092 0.1065226 -0.053452767 -0.1299174 -0.06238999 -0.03723726 0.031435672 0.028006779
-0.032600768 -0.109440416 -0.026401207 -0.04312585 -0.053815443 -0.120362855 -0.09651144 -0.11269261
0.05032939 0.04345444 -0.119170114 0.0355421 -0.057931654 -0.061772607 -0.007868272 0.0395779
-0.1253178 0.085995056 0.042552583 -0.046197236 0.04762131 -0.12340534 0.08146405 0.045083493
0.040679008 -0.01053332 0.10953189 -0.12735108 -0.13316824 0.062052954 -0.050014995 0.06362556
-0.12849133 0.08934303 0.0785217 -0.091365665 -0.006358312 -0.10287317 -0.13381496 -0.12682584
0.036652148 -0.05718237 0.10397077 0.06937205 -0.12770516 0.043906532 -0.10830347 0.04988021
-0.051157568 -0.08527994 -0.066960216 -0.07855667 0.00059838936 -0.067130946 -0.094934165 -0.09754073
0.09302841 -0.055262793 -0.049652237 0.105149426 0.012462059 -0.13355014 -0.0732262 0.06948866
-0.040788695 -0.0754645 -0.06968905 0.03655179 -0.10745573 -0.06559161 -0.046316344 0.026833806
0.007111832 0.0156193 -0.13024952 -0.11414949 -0.045564815 -0.015844477 0.07281803 -0.016724845
0.06985145 0.08980134 -0.0128824 -0.048198212 0.04347349 -0.060421422 0.0865655 -0.0028833144
-0.120003946 -0.11501483 -0.06314371 0.032839023 0.094821334 0.0560715 -0.11359823 0.014956293
0.06848459 0.10710203 -0.025634665 -0.13502641 -0.04729361 -0.017021827 -0.041906625 -0.13349567
0.0707006 -0.087579645 0.041527033 0.027886331 0.106586054 0.07533334 -0.10147473 0.03795574
-0.07503888 -0.10044187 -0.04375734 0.05545999 0.095188096 -0.06647597 0.05393788 -0.039212245
-0.0951828 0.03038345 0.06689659 -0.12812743 -0.11806643 -0.018248798 -0.053817794 -0.09563722
-0.020912152 -0.117139965 0.038694803 -0.11718135 0.11149643 -0.047123965 -0.07866423 0.06444796
-0.017226573 0.08296677 -0.1104998 -0.016158817 -0.0484647 -0.120425776 0.108870454 -0.055091392
-0.10336047 -0.1369151 -0.079740025 0.082293056 0.016173352 -0.111036584 -0.070796646 -0.055454895
-0.13066751 0.042266715 0.029157192 -0.0017594284 -0.12432564 -0.048945703 -0.038074214 -0.04618721
0.08880532 0.022052089 0.014602288 0.06723897 0.22300877 0.03969164 0.1773787 0.22508855
0.077221386 0.15011925 0.09680559 0.029143581 0.25762329 0.10301907 0.22620028 0.08187545
0.049451467 0.21764967 0.052351836 0.12651283 0.16679962 0.043417517 0.031544995 0.21774583
0.18517481 0.14763416 0.15416612 0.08636077 0.06729209 0.17067043 0.080943815 0.025625955
0.13300297 0.11338265 0.13487647 0.0146748405 0.21786192 0.051775154 0.11558983 0.14617059
0.20288922 0.19678359 0.081129566 0.13567829 0.030379852 0.16559108 0.16272469 0.124936946
0.24961844 0.070368744 0.06798389 0.08908845 0.051223774 0.20518465 0.12683947 0.1386288
0.10510649 0.18127823 0.13858303 0.070663616 0.18427083 0.12655215 0.13999179 0.04688762
00000000: 956a 2ebd 8226 a13c 2ec4 45bd 9449 b7bd
00000010: 3cdb 113d e656 703d 1190 26bb 951f 01be
00000020: 851e a9bd f981 073d b5e7 a2bd 78cd 133d
00000030: 992c 80bd d5ba b63c b732 eabd d227 46bd
00000040: 49e6 99bd d1cd d2bd 5a91 dabb c125 fdbd
00000050: e847 643d 25d1 8dbd 90d1 c63d ef0f e93c
00000060: 65ed a4bd 8528 da3d 4af1 5abd 1109 05be
00000070: a58c 7fbd 1986 18bd b1c2 003d 796e e53c
00000080: 6288 05bd 4c22 e0bd 5847 d8bc bba4 30bd
00000090: 956d 5cbd cd80 f6bd caa7 c5bd 62cb e6bd
000000a0: 3126 4e3d 48fd 313d 760f f4bd 9894 113d
000000b0: be49 6dbd 4605 7dbd ede9 00bc 701c 223d
000000c0: 4f53 00be 2d1e b03d 9e4b 2e3d 5039 3dbd
000000d0: 900e 433d f0bb fcbd a0d6 a63d 78a9 383d
000000e0: 089f 263d f293 2cbc 4152 e03d 5268 02be
000000f0: 415d 08be 3d2b 7e3d 86dc 4cbd 1e4e 823d
00000100: 3b93 03be 7af9 b63d fccf a03d ec1d bbbd
00000110: 6359 d0bb 2baf d2bd ca06 09be a2de 01be
00000120: 9020 163d 1038 6abd a1ee d43d ef12 8e3d
00000130: 24c5 02be 56d7 333d 36ce ddbd 314f 4c3d
00000140: 998a 51bd 40a7 aebd 7022 89bd 52e2 a0bd
00000150: 3bdd 1c3a f37b 89bd d86c c2bd 6fc3 c7bd
00000160: ae85 be3d 3d5b 62bd 2560 4bbd 9558 d73d
00000170: aa2d 4c3c 5ec1 08be 9ef7 95bd 1250 8e3d
00000180: 0c12 27bd 228d 9abd 22b9 8ebd 54b7 153d
00000190: c011 dcbd e554 86bd 35b6 3dbd 92d2 db3c
000001a0: 5f0a e93b 18e8 7f3c 2160 05be 35c7 e9bd
000001b0: 2ca2 3abd 47cc 81bc 9f21 953d 8b02 89bc
000001c0: 470e 8f3d c4e9 b73d b410 53bc 7d6b 45bd
000001d0: 4211 323d 747c 77bd 4149 b13d fdf5 3cbb
000001e0: a1c4 f5bd e58c ebbd 7d51 81bd 3682 063d
000001f0: b031 c23d 3bab 653d 30a6 e8bd 3d0b 753c
00000200: a641 8c3d 4f58 db3d caff d1bc 5d44 0abe
00000210: f2b6 41bd 5c71 8bbc 48a6 2bbd 17b3 08be
00000220: 7acb 903d f55c b3bd 4018 2a3d e071 e43c
00000230: ca49 da3d 5e48 9a3d fcd1 cfbd 7a77 1b3d
00000240: fcad 99bd 78b4 cdbd e63a 33bd 042a 633d
00000250: faf1 c23d 8e24 88bd f7ed 5c3d 059d 20bd
00000260: 33ef c2bd b7e6 f83c 1401 893d d633 03be
00000270: d0cc f1bd 817e 95bc 0c70 5cbd 72dd c3bd
00000280: f64f abbc 14e7 efbd 717e 1e3d c7fc efbd
00000290: 3e58 e43d 0f05 41bd b61a a1bd 4bfd 833d
000002a0: be1e 8dbc 7bea a93d b84d e2bd 7f5f 84bc
000002b0: ec82 46bd caa1 f6bd 79f7 de3d 83a7 61bd
000002c0: a7ae d3bd 7933 0cbe bd4e a3bd 4389 a83d
000002d0: fa7d 843c 2667 e3bd d5fd 90bd ac24 63bd
000002e0: b4cd 05be dd1f 2d3d 10db ee3c 9f9c e6ba
000002f0: 719e febd 4a7b 48bd b5f3 1bbd cd2e 3dbd
00000300: 90df b53d 95a6 b43c 6f3e 6f3c 96b4 893d
00000310: 695c 643e b393 223d c3a2 353e 9d7d 663e
00000320: 3f26 9e3d dcb8 193e 0242 c63d 85be ee3c
00000330: 33e7 833e aafb d23d 0ca1 673e 51ae a73d
00000340: 9f8d 4a3d 8edf 5e3e e16e 563d 948c 013e
00000350: 85cd 2a3e 91d6 313d 5335 013d c3f8 5e3e
00000360: 779e 3d3e 692d 173e b9dd 1d3e eadd b03d
00000370: 6fd0 893d 3bc4 2e3e dfc5 a53d 86ed d13c
00000380: ee31 083e 2a35 e83d 0f1d 0a3e be6e 703c
00000390: 3217 5f3e 2f12 543d 5cba ec3d bead 153e
000003a0: 31c2 4f3e a381 493e 4227 a63d 40ef 0a3e
000003b0: 2bdf f83c b590 293e 4da1 263e f1de ff3d
000003c0: fa9b 7f3e 7d1d 903d 233b 8b3d 0174 b63d
000003d0: 05d0 513d ed1b 523e 35e2 013e b5f4 0d3e
000003e0: 1242 d73d 00a1 393e b6e8 0d3e 16b8 903d
000003f0: 7eb1 3c3e e396 013e 025a 0f3e 3c0d 403d

model.2.bias f4 [32]
0.0012152724 -0.04911201 -0.117294274 0.020561643 -0.088042594 -0.09629395 0.15780208 0.06314292
0.16201384 0.013785159 0.10056652 0.038807012 0.23383282 0.23928356 -0.06828106 -0.035760228
0.10393523 0.041473918 0.053938445 0.12655683 -0.11616979 -0.0055599944 -0.113035224 0.061251275
-0.057467308 0.1778151 -0.004260917 -0.13204087 -0.14332597 -0.046152506 -0.01213317 -0.0954004
00000000: c649 9f3a ad29 49bd fb37 f0bd e470 a83c
00000010: ad4f b4bd c335 c5bd de96 213e 1351 813d
00000020: f5e6 253e 26db 613c d2f5 cd3d 1af4 1e3d
00000030: df71 6f3e c006 753e f1d6 8bbd 5179 12bd
00000040: fedb d43d 8ee0 293d 8fee 5c3d 1d98 013e
00000050: 6dea edbd 9d30 b6bb 037f e7bd 9ee2 7a3d
00000060: d762 6bbd 2915 363e 2a9f 8bbb b935 07be
00000070: 0bc4 12be 690a 3dbd 34ca 46bc 4961 c3bd

model.4.weight f4 [1, 32]
-0.09622066 -0.014134492 -0.09969939 0.22564831 -0.10252341 -0.06784633 0.29096618 0.25446445
0.27532095 0.14170536 0.16392973 -0.079017356 0.28707477 0.13367063 -0.007117988 -0.07911072
0.27514267 -0.12851195 0.3163054 0.2102486 -0.060593475 0.068231136 -0.031049365 -0.11852158
-0.06456375 0.24804443 0.2514881 -0.12839104 -0.044246405 -0.13362633 -0.054765884 -0.09360236
00000000: 560f c5bd 5b94 67bc 322f ccbd 5a10 673e
00000010: cbf7 d1bd 04f3 8abd 85f9 943e 2a49 823e
00000020: def6 8c3e 361b 113e 32dd 273e dad3 a1bd
00000030: 77fb 923e f4e0 083e 033e e9bb cd04 a2bd
00000040: 80df 8c3e a398 03be c8f2 a13e 694b 573e
00000050: dd30 78bd c4bc 8b3d 3d5b febc 71bb f2bd
00000060: 003a 84bd 5cff 7d3e 0cc3 803e f178 03be
00000070: b83b 35bd 57d5 08be 3152 60bd 98b2 bfbd
