wildfire_nn_weights125_no_Std_Confidence.pth (torch, 13586 bytes, 5 tensors)

model.0.weight f4 [64, 7]
-0.37352285 -0.23231092 0.017677914 -0.011417964 -0.15664452 0.2650506 -0.2982648 -0.16688235
0.23789553 0.22020435 -0.17186551 0.14668271 -0.20922858 -0.124451436 -0.3961961 0.05654235
0.11011562 -0.34494367 -0.41229755 0.56388754 0.036438763 -0.3631034 0.31574816 -0.28060853
0.094270445 0.18612015 0.31642643 0.07363904 -0.30444074 -0.2737097 0.42751107 -0.17007162
0.05774425 0.374059 -0.08280077 -0.32127228 -0.16810323 -0.25984278 -0.18369739 -0.48545653
0.20957072 0.26265907 0.066088 0.011794904 0.0742465 -0.17471063 0.223786 0.057015188
-0.061386935 -0.6676693 -0.03530506 0.2536801 -0.4158978 0.43255046 -0.18299383 0.100346155
0.43779415 0.23042476 0.008196866 -0.40463814 0.23850189 -0.11889202 0.23030609 -0.64307535
0.20051134 -0.24696821 0.0061404947 0.12603842 0.007781957 -0.111323476 -0.3498903 0.24557093
-0.27683187 0.59307665 0.17238909 0.06122512 -0.020038337 -0.25402677 -0.86207604 -0.16433929
-0.58009833 -0.042654928 -0.38342583 -0.12618624 0.14295444 0.039817587 -0.17791016 0.6316341
0.29160768 -0.16198124 0.104810685 0.02741906 0.016357247 -0.12876514 -0.024765797 0.14819318
-0.6599069 -0.19597732 -0.4390133 -0.028714864 0.25502655 -0.43282035 0.20457812 0.2288322
0.17238845 -0.107061945 -0.09267863 0.119325124 0.23861426 0.12776214 0.21598741 0.12117649
0.23745835 0.06649376 -0.05701869 -0.5810088 0.36453992 0.052283183 0.07860966 0.42840248
0.074633636 -0.06686225 -0.16307183 -0.42994213 -0.20633362 -0.10696098 -0.37008378 0.09423625
0.061687466 0.089589894 0.17573497 0.094702214 -0.14060092 0.2874682 -0.10313308 -0.44722372
0.45821017 -0.24251284 -0.4214209 0.0632789 0.0010902785 0.25442484 -0.009654923 -0.405843
0.32611465 0.196017 -0.07269403 -0.42971796 -0.15235142 0.4629134 -0.22086197 0.24524727
-0.039491355 0.25921258 0.05271225 -0.17166068 0.3831344 -0.47917417 0.19835357 -0.0668877
-0.07863558 -0.27953756 0.099270925 0.21598929 -0.29522407 0.35095853 0.10549493 0.13862808
-0.014028382 -0.58099246 -0.51569533 0.63043934 0.17823572 -0.009777946 0.056054275 0.15458049
0.16956282 0.0571483 0.16504651 0.12562197 -0.3679141 0.27435184 -0.012372613 0.2215035
-0.2635478 -0.5799228 0.2535299 -0.12048174 0.023536706 0.56131566 -0.077386655 0.024312176
0.17529565 -0.040101025 -0.04757613 0.01420288 0.51789814 0.3678904 -0.061896116 -0.5900871
-0.18159148 0.053723812 -0.057015467 -0.1218512 0.060349736 0.41266036 -0.056906335 -0.12815177
-0.01645243 -0.06729845 0.6700974 0.0022719402 0.27377895 0.23087323 -0.4037811 0.114796415
-0.024071341 -0.094374076 -0.16905424 -0.45561227 0.58593416 0.08659367 0.026247572 -0.22181502
-0.35349488 -0.19131371 -0.0664417 -0.038883843 0.06527262 -0.1427587 -0.21046284 0.17524935
0.12863195 -0.0940407 -0.18319851 0.36609295 -0.022792729 -0.010196809 0.5962803 -0.24432674
0.17873223 -0.19186555 -0.32126138 -0.4720898 0.16171466 0.38948947 0.06244623 -0.21029586
0.4296197 -0.25029495 0.37899482 0.18628411 0.16342802 -0.12828834 -0.16207273 0.32079777
00000000: 633e bfbe eae2 6dbe 46d1 903c 6912 3bbc
00000010: 6c67 20be b6b4 873e 2ab6 98be 35e3 2abe
00000020: e39a 733e 407d 613e 83fd 2fbe fe33 163e
00000030: 0440 56be 65e0 febd 37da cabe f498 673d
00000040: 4c84 e13d 759c b0be aa18 d3be ef5a 103f
00000050: d040 153d b0e8 b9be bea9 a13e ecab 8fbe
00000060: dd10 c13d 4896 3e3e a502 a23e 11d0 963d
00000070: a8df 9bbe ae23 8cbe bbe2 da3e 4127 2ebe
00000080: 3c85 6c3d a984 bf3e 7393 a9bd cd7d a4be
00000090: 4123 2cbe 1d0a 85be 2b1b 3cbe c28d f8be
000000a0: b599 563e 407b 863e 2559 873d 6a3f 413c
000000b0: 8d0e 983d 58e7 32be 2828 653e c288 693d
000000c0: de70 7bbd 60ec 2abf 0a9c 10bd 5ce2 813e
000000d0: 8ef0 d4be 4177 dd3e bc62 3bbe 4982 cd3d
000000e0: 8e26 e03e 78f4 6b3e 264c 063c bb2c cfbe
000000f0: d739 743e a97d f3bd 5cd5 6b3e 96a0 24bf
00000100: d852 4d3e 3ce5 7cbe 3436 c93b 3710 013e
00000110: c9ff fe3b 90fd e3bd d224 b3be f276 7b3e
00000120: e8bc 8dbe dfd3 173f c486 303e 31c7 7a3d
00000130: 7027 a4bc cc0f 82be 04b1 5cbf 8f48 28be
00000140: 5381 14bf efb6 2ebd 6450 c4be f736 01be
00000150: a662 123e c417 233d 152e 36be c6b2 213f
00000160: 9a4d 953e 69de 25be fca6 d63d f09d e03c
00000170: a2ff 853c 02db 03be a4e1 cabc f4bf 173e
00000180: a9ef 28bf 47ae 48be 5ac6 e0be 6f3b ebbc
00000190: d792 823e a19a ddbe ed7c 513e fd52 6a3e
000001a0: 9986 303e 4b43 dbbd 4bce bdbd bb60 f43d
000001b0: 4c57 743e 14d4 023e ce2b 5d3e 612b f83d
000001c0: 4828 733e e12d 883d 6e8c 69bd febc 14bf
000001d0: faa4 ba3e e426 563d 1afe a03d 9257 db3e
000001e0: 85d9 983d 13ef 88bd 4dfc 26be 6021 dcbe
000001f0: 1f49 53be 5c0e dbbd 9f7b bdbe effe c03d
00000200: ffab 7c3d e87a b73d def3 333e 3cf3 c13d
00000210: b0f9 0fbe 082f 933e 7037 d3bd 82fa e4be
00000220: 869a ea3e 4955 78be 7bc4 d7be 5e98 813d
00000230: ade7 8e3a f943 823e af2f 1ebc a7ca cfbe
00000240: 80f8 a63e aeb8 483e 9ce0 94bd fe03 dcbe
00000250: 0302 1cbe fc02 ed3e a429 62be 1a22 7b3e
00000260: b0c1 21bd 83b7 843e cde8 573d d1c7 2fbe
00000270: 312a c43e 5156 f5be 331d 4b3e 6bfc 88bd
00000280: b10b a1bd 8c1f 8fbe 8e4e cb3d 4c2c 5d3e
00000290: 9c27 97be d6b0 b33e ba0d d83d 85f4 0d3e
000002a0: 4cd7 65bc ecbb 14bf 9c04 04bf 7964 213f
000002b0: 6d83 363e ae33 20bc 2b99 653d 594a 1e3e
000002c0: e0a1 2d3e 5614 6a3d f401 293e 0ca3 003e
000002d0: 3d5f bcbe d877 8c3e 80b6 4abc d0d1 623e
000002e0: bdef 86be d275 14bf acce 813e 21bf f6bd
000002f0: 0dd0 c03c 62b2 0f3f e57c 9ebd 542a c73c
00000300: b480 333e f940 24bd 30df 42bd 32b3 683c
00000310: f994 043f 215c bc3e c886 7dbd f30f 17bf
00000320: 1ef3 39be 800d 5c3d 0d89 69bd 1f8d f9bd
00000330: 4931 773d 3848 d33e 9e16 69bd 383a 03be
00000340: 3fc7 86bc c5d3 89bd 818b 2b3f d5e4 143b
00000350: c12c 8c3e 086a 6c3e 65bc cebe 621a eb3d
00000360: 4331 c5bc 3247 c1bd 8e1c 2dbe 0346 e9be
00000370: c8ff 153f 0658 b13d 2605 d73c 7a23 63be
00000380: 48fd b4be bee7 43be 9612 88bd aa44 1fbd
00000390: a7ad 853d 562f 12be 9283 57be 9174 333e
000003a0: 18b8 033e 6998 c0bd 6498 3bbe 8970 bb3e
000003b0: d1b7 babc 8410 27bc d3a5 183f ca30 7abe
000003c0: 9505 373e 6778 44be 5f7c a4be c1b5 f1be
000003d0: 8798 253e 2a6b c73e 9ec7 7f3d cc57 57be
000003e0: 1df7 db3e a926 80be 9c0b c23e 43c1 3e3e
000003f0: ad59 273e 055e 03be 65f6 25be 9b3f a43e

model.0.bias f4 [64]
0.07831409 0.09012654 0.03997761 -0.22532256 -0.013928291 0.21314079 0.0980553 -0.45567667
-0.09548577 -0.21759945 -0.26030368 -0.43062946 -0.06557434 -0.0565307 0.1987691 -0.12476255
-0.5160898 0.07458645 0.33107167 -0.18218687 0.19909593 -0.45063564 0.14410582 0.021221818
-0.25241295 -0.42373607 -0.042462144 0.7252574 0.2920686 -0.63020074 -0.07993063 -0.21899052
-0.40792617 -0.031305876 0.20909111 0.26533496 -0.19261187 -0.5558599 0.18723139 0.29570377
0.14487737 -0.5081529 -0.22951925 -0.5806554 -0.17637055 -0.006981472 -0.55519724 -0.14668079
0.10147479 -0.15357323 0.08175135 0.1799475 -0.008833505 0.200065 -0.56315607 -0.5151396
-0.4305729 -0.22203185 -0.36942774 -0.3359933 -0.47465008 -0.45847 -0.36303478 -0.6407517
00000000: 2363 a03d 4394 b83d 90bf 233d f5ba 66be
00000010: 7d33 64bc 9441 5a3e 38d1 c83d 744e e9be
00000020: 0b8e c3bd 64d2 5ebe 8646 85be 777b dcbe
00000030: d74b 86bd bc8c 67bd 208a 4b3e 8283 ffbd
00000040: 761e 04bf c8c0 983d 3a82 a93e 328f 3abe
00000050: cedf 4b3e b7b9 e6be 7a90 133e 61d9 ad3c
00000060: 453c 81be eff3 d8be c9ec 2dbd 78aa 393f
00000070: 048a 953e d654 21bf acb2 a3bd 0d3f 60be
00000080: b3db d0be 973a 00bd fb1b 563e fcd9 873e
00000090: 0c3c 45be d64c 0ebf 96b9 3f3e 7c66 973e
000000a0: bc5a 143e 4f16 02bf 1807 6bbe d5a5 14bf
000000b0: 7b9a 34be d5c4 e4bb 6821 0ebf 7d33 16be
000000c0: 04d2 cf3d 4d42 1dbe 406d a73d 2844 383e
000000d0: 68ba 10bc d7dd 4c3e ff2a 10bf 30e0 03bf
000000e0: 0d74 dcbe 515c 63be a225 bdbe 5007 acbe
000000f0: 5605 f3be 94bc eabe b2df b9be 4e08 24bf

model.2.weight f4 [32, 64]
-0.14108144 -0.19356096 -0.10218207 -0.0033076906 -0.115663804 -0.0054757 -0.054903496 -0.12600861
-0.09070798 0.049414527 0.01637997 0.058323212 0.1108551 -0.0119007975 -0.11646501 -0.09326788
-0.0055086105 -0.10709379 -0.12221137 -0.121658616 -0.111644074 -0.1465241 9.817402e-05 -0.18885261
-0.0037386199 -0.19713026 0.019801196 -0.008860441 -0.02672415 0.060384735 -0.023844007 0.13928425
-0.15864542 -0.1286182 -0.17290229 -0.08145787 -0.003624544 -0.093246765 0.031862777 -0.06809068
0.04035414 -0.14355695 -0.031891853 0.06121235 -0.09028891 -0.015512145 0.013139191 -0.2097606
-0.07583626 0.15273145 -0.079772964 -0.090415664 -0.014669063 -0.087363094 -0.0001124768 0.12266558
-0.09130085 0.06424384 -0.21326944 -0.037874248 0.0126386285 0.024043998 0.009779899 0.011584347
-0.022701379 0.03721303 -0.01249498 0.09448439 0.20142482 0.11591261 0.01669216 0.105900615
-0.17364743 -0.0038351868 0.17510253 0.15242153 -0.04635392 -0.039379325 -0.049164988 0.16911651
-0.05559546 0.15030214 -0.14703399 0.062668055 -0.066034704 0.38264284 -0.35712907 -0.027345587
0.04536142 -0.03188587 0.056379374 -0.050201897 0.10512021 -0.11376559 -0.29673594 -0.045361776
0.20912755 -0.15068428 0.04373354 -0.056031313 -0.15517926 0.09497299 -0.13624428 -0.17556712
-0.03766752 0.045791883 -0.29783878 -0.04139528 0.10680397 -0.21777914 0.12788355 0.13624902
-0.08382543 -0.18638909 -0.27000967 -0.047464866 0.19077937 -0.104965486 0.0015439157 0.18922074
-0.0273349 -0.107401446 0.12023346 -0.045793947 -0.0681261 -0.0024828129 0.05491511 0.26206046
-0.023087436 0.04153821 0.11764807 0.011883678 -0.14171085 -0.079659685 -0.091028556 -0.06820096
-0.045654006 -0.03720046 -0.008601079 0.2156963 0.0892311 -0.09187139 -0.16761805 0.03487126
-0.11871041 -0.15364607 -0.042884916 -0.04680574 -0.061889783 -0.093549125 -0.08255379 -0.2236084
-0.16135588 0.057086647 0.007290759 -0.14537783 0.021565117 -0.17839538 -0.29564387 -0.32320532
0.034345906 -0.21705733 -0.2515842 0.12292385 -0.15861718 -0.026214305 -0.0929351 -0.059853416
-0.030982535 -0.036261067 -0.11751114 -0.17569701 -0.012405055 -0.095725976 0.06944542 -0.082267955
-0.047282774 -0.18261805 -0.22137561 0.0023570855 0.14487076 -0.1296816 -0.031805247 -0.06954736
-0.07363281 0.058526825 0.055358622 -0.086932205 -0.045111116 -0.1532615 0.020187143 -0.069901295
-0.13823746 -0.044435393 -0.09000617 -0.06833856 -0.0021526353 -0.042541932 -0.13336724 0.017200278
-0.017508501 -0.025496477 0.051783524 0.027595585 0.04823445 -0.072961345 -0.15089302 -0.10313298
-0.05038775 0.047873754 -0.14816558 -0.014663886 0.048361983 -0.06347614 -0.013250374 -0.024573818
-0.13840146 0.009658635 -0.17833577 -0.11861434 -0.0010445176 0.0077718566 -0.08496573 -0.14834669
0.035856105 -0.10791695 0.027126178 -0.14243293 -0.013627061 -0.14620252 0.041482586 -0.017564101
0.076885045 -0.16549842 -0.118396774 -0.016971478 -0.043238502 -0.010259965 -0.077500686 -0.06596878
-0.15717202 -0.07818302 0.023549156 0.05074698 0.0028806066 -0.0071659256 -0.11194556 0.032400325
0.0072348705 0.07377501 0.056312766 0.030354017 0.047344405 0.011582865 0.035688505 0.0068627824
00000000: a777 10be d834 46be d544 d1bd d7c5 58bb
00000010: 25e1 ecbd 806d b3bb 7de2 60bd 6708 01be
00000020: 1bc5 b9bd e366 4a3d 492f 863c 52e4 6e3d
00000030: 0008 e33d 90fb 42bc 3585 eebd 3b03 bfbd
00000040: 9381 b4bb fd53 dbbd f449 fabd 2728 f9bd
00000050: a6a5 e4bd 6a0a 16be c7e2 cd38 9462 41be
00000060: a203 75bb 84dc 49be 1e36 a23c 622b 11bc
00000070: 9bec dabc fc55 773d 8254 c3bc 88a0 0e3e
00000080: f273 22be 7db4 03be 4c0d 31be 62d3 a6bd
00000090: c289 6dbb 29f8 bebd 8b82 023d 2073 8bbd
000000a0: 624a 253d 9800 13be 08a1 02bd cdb9 7a3d
000000b0: 64e9 b8bd a726 7ebc c345 573c 7ccb 56be
000000c0: 0b50 9bbd a265 1c3e 0260 a3bd d92b b9bd
000000d0: 8256 70bc 6ceb b2bd 86e1 ebb8 1738 fb3d
000000e0: f1fb babd 4692 833d 4e63 5abe 0722 1bbd
000000f0: 4012 4f3c ebf7 c43c df3b 203c 46cc 3d3c
00000100: 3ef8 b9bc b16c 183d bfb7 4cbc 0881 c13d
00000110: 4f42 4e3e 9763 ed3d ffbd 883c 6ce2 d83d
00000120: a2d0 31be c257 7bbb 144e 333e 6414 1c3e
00000130: 9cdd 3dbd 374c 21bd 3a61 49bd e12c 2d3e
00000140: 11b8 63bd cee8 193e 1490 16be 1c58 803d
00000150: 343d 87bd c3e9 c33e 9fd9 b6be da03 e0bc
00000160: e5cc 393d c29a 02bd 0fee 663d 81a0 4dbd
00000170: 4449 d73d effd e8bd c6ed 97be 45cd 39bd
00000180: 8825 563e fb4c 1abe f121 333d 1781 65bd
00000190: 50e7 1ebe 3381 c23d 9f83 0bbe dec7 33be
000001a0: 4249 1abd 4590 3b3d 537e 98be 198e 29bd
000001b0: 0abc da3d 7f01 5fbe e8f3 023e dd84 0b3e
000001c0: abac abbd c8dc 3ebe b53e 8abe 856a 42bd
000001d0: ab5b 433e 25f8 d6bd 375d ca3a 15c3 413e
000001e0: 71ed dfbc 4af5 dbbd f63c f63d 6f92 3bbd
000001f0: b285 8bbd b0b6 22bb abee 603d ca2c 863e
00000200: dd21 bdbc f823 2a3d 79f1 f03d c2b3 423c
00000210: a61c 11be 9e24 a3bd 2e6d babd f2ac 8bbd
00000220: b2ff 3abd 825f 18bd 8aeb 0cbc 7edf 5c3e
00000230: ccbe b63d 1127 bcbd 11a4 2bbe 2bd5 0e3d
00000240: 721e f3bd 6555 1dbe 18a8 2fbd 60b7 3fbd
00000250: 2480 7dbd af96 bfbd f611 a9bd 9af9 64be
00000260: 7a3a 25be b0d3 693d 52e7 ee3b eddd 14be
00000270: 54a9 b03c 47ad 36be a25e 97be 2b7b a5be
00000280: 4bae 0c3d 4744 5ebe a5cf 80be 80bf fb3d
00000290: 8b6c 22be 62bf d6bc c254 bebd db28 75bd
000002a0: 16cf fdbc 7c86 14bd aea9 f0bd ebe9 33be
000002b0: 923e 4bbc fb0b c4bd 6639 8e3d 1a7c a8bd
000002c0: 95ab 41bd 3a00 3bbe 4ab0 62be 5579 1a3b
000002d0: 0059 143e 41cb 04be 3846 02bd d96e 8ebd
000002e0: cccc 96bd d3b9 6f3d b9bf 623d 8309 b2bd
000002f0: 6fc6 38bd 95f0 1cbe 825f a53c 6928 8fbd
00000300: 1f8e 0dbe e301 36bd 2855 b8bd 16f5 8bbd
00000310: 3a13 0dbb 7340 2ebd 6c91 08be 99e7 8c3c
00000320: fd6d 8fbc fddd d0bc f61a 543d 2310 e23c
00000330: 7d91 453d c26c 95bd b383 1abe 6237 d3bd
00000340: 6363 4ebd 4517 443d b8b8 17be cc40 70bc
00000350: 3717 463d c7ff 81bd 1918 59bc 084f c9bc
00000360: 1db9 0dbe 403f 1e3c a79d 36be 13ec f2bd
00000370: 32e8 88ba 0fab fe3b 8302 aebd 32e8 17be
00000380: dadd 123d 9003 ddbd b837 de3c f0d9 11be
00000390: 0944 5fbc 1db6 15be a5e9 293d 97e2 8fbc
000003a0: e875 9d3d 6b78 29be 027a f2bd c507 8bbc
000003b0: db1a 31bd 6a19 28bc aeb8 9ebd a41a 87bd
000003c0: b4f1 20be 6b1e a0bd 29ea c03c 11dc 4f3d
000003d0: 8fc8 3c3b 24d0 eabb b743 e5bd 34b6 043d
000003e0: 7e12 ed3b 5a17 973d 37a8 663d fda8 f83c
000003f0: 35ec 413d 0fc6 3d3c 1c2e 123d 31e1 e03b

model.2.bias f4 [32]
-0.08150901 -0.11813376 -0.016816666 0.009591112 -0.050509658 0.3509506 -0.14954947 0.044154868
0.36428604 -0.025116025 -0.105851114 0.04451703 0.0334707 -0.17548023 0.15344864 0.22047818
0.05320831 0.21786283 -0.1737458 -0.11326172 -0.040402967 0.06259234 -0.10151055 -0.08274397
-0.1786799 -0.094772175 -0.17867278 0.23326379 0.005017571 0.17535344 -0.12013664 0.11722661
00000000: 32ee a6bd 1df0 f1bd 1bc3 89bc 0a24 1d3c
00000010: 37e3 4ebd ccaf b33e 7f23 19be bcdb 343d
00000020: b383 ba3e 1fc0 cdbc 78c8 d8bd 7d57 363d
00000030: 9318 093d 17b1 33be a421 1d3e 08c5 613e
00000040: f5f0 593d 6f17 5f3e 6bea 31be c3f5 e7bd
00000050: 957d 25bd 6a30 803d c3e4 cfbd ac75 a9bd
00000060: ddf7 36be ea17 c2bd fff5 36be b4dc 6e3e
00000070: 706a a43b da8f 333e 330a f6bd 8114 f03d

model.4.weight f4 [1, 32]
0.007848266 -0.05502673 0.009611112 -0.00031418228 -0.13108902 -0.2760182 0.2348942 0.23965286
-0.36102408 0.7577639 0.10635132 0.26035154 0.12435047 0.20813528 0.14106098 0.26578647
-0.13569278 0.14215401 0.19149351 0.10699185 0.040233023 0.027202422 0.6437101 0.61099505
-0.15265788 -0.031700686 0.21219863 -0.5119353 0.35581455 -0.08513026 -0.45339677 0.08669812
00000000: 0396 003c b563 61bd ed77 1d3c d5b8 a4b9
00000010: 333c 06be 4252 8dbe 1b88 703e 8f67 753e
00000020: 26d8 b8be d1fc 413f b9ce d93d cc4c 853e
00000030: 76ab fe3d 6a21 553e 4a72 103e 2a15 883e
00000040: 0cf3 0abe d290 113e e016 443e 8b1e db3d
00000050: 62cb 243d 9dd7 de3c 2fca 243f 2c6a 1c3f
00000060: 5952 1cbe 94d8 01bd 994a 593e 310e 03bf
00000070: 532d b63e c658 aebd 9f23 e8be c98e b13d
