wildfire_model_weights.pth (torch, 12318 bytes, 5 tensors)

0.weight f4 [64, 3]
00000000: 11dd f8be 593c 1c3f d39d 363f c8ab fb3e
00000010: 6f50 a73e 9e1c c8be c48b 7ebe a892 933e
00000020: cff2 9abe 3d48 0fbf 3866 eabe b33d d8be
00000030: de81 b3bd f21e 88be a482 58be 9c31 3ebe
00000040: 54fb 89be f56b e83c 6a19 f83e 61e6 f53d
00000050: b89c 4ebe e0e9 c43e af75 09bd 07fe 3a3e
00000060: d3b3 8cbe 5cc8 e5be 7ad3 e43d 38cd 3dbe
00000070: 569f 5cbe 4f8f 103f 0aba 4d3a d1b4 7dbe
00000080: f061 d1be b6f5 78be e941 213f 6314 f23e
00000090: 01af ab3e 0e39 87be 747e 7dbe f92e 043f
000000a0: 826d 38be 59f6 b4be bde1 0b3f 214f f8be
000000b0: f270 df3e ef91 a63e 7003 b2be 43a6 f0be
000000c0: 5fe5 16bf 453e 013f cfd2 cfbe edef e6bd
000000d0: d0f4 413e 66bb 0b3f ca3d ef3e 9998 efbe
000000e0: 0b1a 25be 3e1a 20bf 4b3d ab3d bc35 8d3e
000000f0: 1fb1 063e 3f1f aa3d 71f3 eebd d319 3a3f
00000100: 2d8d bebe 9a13 093f 7130 16be 727b ce3b
00000110: 0e0f 96be 16f0 fd3e 430c 2cbd 8c70 a83e
00000120: bbbe 3ebf dd75 2cbe 9fd3 f1be fe76 11bf
00000130: 28d0 85bc c860 0cbe 2395 05bf a250 18bf
00000140: ac38 38bd 3aae 493e 9444 043f e06d d03e
00000150: 046a 8c3e 541e d0bc db82 d23e f020 d43d
00000160: 9e31 97be 9e13 77be 0da2 2abf 99f8 a3be
00000170: 84c6 c8be 84e2 cbbe c97b 29be b80c 9bbe
00000180: 7aa4 623e c2df 03be 3717 20bf 60d0 26bf
00000190: 1da0 41be 09b7 7cbe e163 cbbe bd47 1c3e
000001a0: c558 9abe 8df8 8d3e 2ea5 1ebe 0876 babe
000001b0: 1796 27bf 66e3 973e 09d6 28be 3336 883e
000001c0: 1183 fbbe d434 e33e e6a1 dc3e de0a d73e
000001d0: 6c45 2f3f 8069 f53d 9883 3cbe 94f6 dabe
000001e0: 2805 463e 278c 59bd f6be 8a3e 2067 05be
000001f0: 9c7f 06bf 1e27 813e 0e41 95be 15d7 34bf
00000200: fe07 91be 51f7 333f 7ecc cf3e f660 10bf
00000210: 49f0 123f b6e4 293f 7192 79be 22e5 9ebe
00000220: f67e 1c3f a1d4 243f dd5b 323d bc5a ebbd
00000230: fe34 b33c e7d8 ec3e db8e 09bf f4b3 403e
00000240: 664a 2ebf 34a4 c53e c7fe 69be 93ec 453e
00000250: 8d54 0cbf 370c eebe a16a 54be 210a 293f
00000260: b496 39be 182e e1be 2b28 db3e fa20 a4be
00000270: 4791 163e 263e 6a3e 1bcd 88be 69de 46be
00000280: d028 613c d535 9b3e f2b2 6f3e 367c aabe
00000290: 92c9 e83d e399 c03d 29a9 bd3e 8017 d93d
000002a0: 5e49 d13d 674d 953e c1f0 96bd e80b a13e
000002b0: 542d 1e3c 1c00 053f 60cf fcbe 78c7 c3be
000002c0: 9c63 bdbe 15b8 cf3e a973 193f f6f5 5d3e
000002d0: bd08 6c3e 6fda e23e c8ca adbe 53fd b0be
000002e0: d50d b7bd db83 063e 1a6c f83e efa2 54bd
000002f0: fb92 1dbf 303d ad3d 4c05 8fbe 36cf 85be
-0.4860616 0.61029583 0.7133457 0.49154496 0.32678553 -0.39084333 -0.24858004 0.28822827
-0.30263373 -0.559696 -0.45781112 -0.42234573 -0.087650046 -0.2658611 -0.21143585 -0.18573612
-0.2694956 0.02837179 0.4845689 0.12006832 -0.20176971 0.38459682 -0.033559497 0.18260966
-0.27480945 -0.44879425 0.111731485 -0.18535316 -0.21545157 0.5646867 0.00078478514 -0.24776007
-0.40895033 -0.24312481 0.62991196 0.4728118 0.33531955 -0.26410717 -0.2475527 0.51634175
-0.18010524 -0.35344198 0.54641324 -0.4849787 0.43640858 0.32533213 -0.34768248 -0.47001848
-0.5894374 0.5048564 -0.40590522 -0.11276231 0.18941045 0.5458282 0.4672683 -0.4679611
-0.16123216 -0.6254004 0.083613 0.2758006 0.13153504 0.08306741 -0.116675265 0.72695655
-0.37217084 0.53545535 -0.14666916 0.006301337 -0.2930836 0.49597234 -0.04200388 0.32898366
-0.7450978 -0.16841836 -0.47231767 -0.5682219 -0.016334608 -0.13708794 -0.5218069 -0.59498036
-0.04497592 0.19695368 0.5166714 0.40708828 0.27424634 -0.025405087 0.4111546 0.10357845
-0.29530042 -0.24128577 -0.6665352 -0.32025602 -0.39213955 -0.39821255 -0.16551127 -0.3028314
0.22133055 -0.12878326 -0.62535423 -0.65161705 -0.18908735 -0.24679197 -0.3972464 0.15261741
-0.3014585 0.27728692 -0.15492699 -0.36418176 -0.65463394 0.2966568 -0.16487898 0.2660385
-0.49123433 0.44376242 0.4309227 0.42000479 0.68465304 0.11983013 -0.18409574 -0.4276625
0.19337904 -0.053112175 0.27098817 -0.1302762 -0.52538466 0.25225157 -0.29151195 -0.7064069
-0.2832641 0.7029925 0.40585703 -0.5639795 0.57397896 0.6636461 -0.24372269 -0.3103419
0.61131227 0.64386946 0.04354464 -0.114919156 0.021875855 0.46259233 -0.53733605 0.18818647
-0.68082273 0.3860184 -0.22851096 0.19328527 -0.54816514 -0.46493694 -0.207438 0.6603108
-0.18123895 -0.4398048 0.42804083 -0.3205641 0.14703856 0.2287527 -0.26718983 -0.1942078
0.013742641 0.30314508 0.23408106 -0.3329789 0.113665715 0.094043516 0.3704312 0.106001854
0.10219072 0.29160616 -0.07370139 0.31454396 0.009654362 0.5195329 -0.49376965 -0.3823812
-0.36990058 0.4057013 0.5994211 0.21675858 0.23050208 0.44307277 -0.33943772 -0.3456827
-0.08938185 0.13136236 0.48519975 -0.051913198 -0.615524 0.08458936 -0.2793373 -0.26134652

0.bias f4 [64]
00000000: 9e6c cdbe e4ab 15be 0c6f 23bf 59f2 963d
00000010: d657 383e 62b7 4e3e da65 d53e 38d6 083e
00000020: 4065 023f dda6 4c3e e614 0fbf 6b65 2fbd
00000030: c3a0 b4bd 07db 8d3e fe68 5a3e cab0 e4be
00000040: 4c79 743e ae08 b33e 5626 9b3e a9d5 b8bd
00000050: 3f9d ba3e ecdd 5dbc cc93 1f3e bd31 a23e
00000060: f7b9 09be e486 fa3e 8468 9ebe a7b8 193f
00000070: d993 0d3f c5b1 823e 0217 b9be 87c2 4cbd
00000080: 074c fdbe 66dc c4bd ef4e ef3e b680 51bd
00000090: d7a8 193f 5c20 fa3e cbc3 99be 0fdf 153f
000000a0: e7ec 363d 38fe 5bbd 3471 8ebc 4074 a83e
000000b0: adcd e93e dd76 e7bd 3140 db3e 92c5 b83e
000000c0: f1bc 1c3e afcf a5be deae 06bf 1d55 85be
000000d0: 0cf6 d73e 4b87 44be a9a3 e73d 5f57 883e
000000e0: ef6e 043f 080a bebe ba2b 1e3d 5ccb 8c3e
000000f0: a19c e2bd 7a63 a43e f56f 25be aa29 8b3e
-0.4012193 -0.14616352 -0.6384132 0.07370443 0.18002257 0.20187142 0.4167927 0.13362968
0.50935745 0.19985528 -0.55891263 -0.04282133 -0.08819725 0.27706167 0.21329114 -0.4466613
0.23874396 0.3496756 0.30302685 -0.090251274 0.36448094 -0.01354168 0.15583724 0.31678572
-0.13449846 0.48931038 -0.30939114 0.6004738 0.5530372 0.25526252 -0.36150366 -0.049990203
-0.49472067 -0.0961235 0.4673991 -0.05114814 0.60023254 0.48852813 -0.3003219 0.58543485
0.04465952 -0.05370924 -0.017387964 0.32901192 0.4566473 -0.11301968 0.42822412 0.36088234
0.1530645 -0.32385013 -0.52610576 -0.260415 0.42179906 -0.19192235 0.113105126 0.2662916
0.5173177 -0.37117028 0.03861592 0.274989 -0.11065031 0.32107145 -0.1615599 0.27180225

2.weight f4 [32, 64]
00000000: 7780 64bb b550 91bd 80bb aa3e 8530 b23c
00000010: 611d bd3c db30 99bd 75fe 603c 8a0b 1fbd
00000020: cb32 1f3d 05f1 2d3d 1366 883d fdde 433b
00000030: f062 a1bd fe1a 873d 28c7 72bc a47b 873d
00000040: ceb6 083e adbd c1bc c37b c83d 342d cabd
00000050: c639 e9bc 34c7 a7bd 4b26 3ebd 109a 7c3c
00000060: 7e1b e33d 05ff 9cbd a15f 2b3d c19f 9a3c
00000070: 234a fcbb d8f7 12bd ca11 913e 56e1 cfbb
00000080: 92d6 e53d d38f e93d 3913 9e3d d549 e53d
00000090: b280 ea3d 80c6 e93d 9913 0a3e 58dc 6cbd
000000a0: 291e bbbd 0819 9b3d 2db9 b93b 2771 a73b
000000b0: 127e 46bd 45ae 6f3d 4f23 6e3d a07c 8a3b
000000c0: f006 ba3c a737 253e a4e3 d33d 042f d3bc
000000d0: ae07 8bbc 490e 5c3c 9c9e 653d 1be9 82bd
000000e0: 3a3c aeba 38e8 a23d 51a3 0b3e 5723 37be
000000f0: 0176 0f3e 2be7 d1bc 08ef 013e 74a2 de3d
00000100: db90 a0bc 45d1 92be a227 443e 404b 3cbd
00000110: 013e 943d df98 a6bc 8f68 543d 8904 e23c
00000120: 51d7 18bb 14b5 c13d 5543 3d3e 2273 cc3d
00000130: 9228 d4bd 4387 3bbd dd1b fe3d 941b 0a3d
00000140: 4dcf b23d 7464 6fbd c802 9f3d 55e8 593d
00000150: ecd5 23be d70c 073e 5d55 83bd 0a7a 883c
00000160: e426 353e 77f1 e03d 1d5f 0bbd d9e5 7f3d
00000170: db7b 873d 9e76 8c3d 4a0f 7e3e 515e 463c
00000180: e8b7 203c c2dd ed3d 1a98 cdbb 5a02 1ebd
00000190: 4d0f cdbd bbc8 ef3d 0771 83bd b144 1d3d
000001a0: 2e7c 34bd 5d54 ed3c 3e46 303e f106 46be
000001b0: 078e 31be 617f 823d 0d90 89bd e172 f9bc
000001c0: f999 a8bd 3188 783e 57bd c0bd 5032 08be
000001d0: 5e22 57be 11e6 9e3c 2639 25bd 6878 f93d
000001e0: 0a90 2ab9 ea78 7e3c 6b00 053d 7571 a7bc
000001f0: dad9 53be c555 f23d 29ff 25be bd63 bbba
00000200: 8d60 443d 6768 0ebe 89e1 58be 1274 b53d
00000210: e46f 863d e687 863d 08ee a73b 1cdb 233e
00000220: a3fb d33d f4f6 ba3d caf5 80be 1bcd f53b
00000230: b341 4c3d 417b 1e3d 619e d83d 4776 26be
00000240: 865d 8bbd 10d1 de3d 9b27 bfbd dd88 0f3d
00000250: 01f0 8bbc c106 d1bd b5c9 2a3b 2e71 383d
00000260: 518f 0a3e 91a5 f4bb 8c30 163e fe85 eb3a
00000270: c757 ddbd e634 bc3d b8cd 34be 7589 6dbd
00000280: 0949 b8be 673a 733d 6fca fabd dd39 cd3d
00000290: 084e 81bd be80 fe3d 0a87 7fbd 00b5 fbbd
000002a0: b637 cfbd 40c9 e1bd eda8 adbc e0e4 1cbd
000002b0: b69c 5b3d a16c a13d 354f 84bd f826 103d
000002c0: c921 713d 1085 1ebe 98a9 e53d bf13 963c
000002d0: 0989 c03d c4fa 1f3d 8c64 d6bd ff40 e2bd
000002e0: 6ccb a939 d08f 52bd e6f4 9ebd 02e3 153e
000002f0: d7da 92bd dc76 b13d 189c e13d a86e 813d
00000300: 121e 8ebe b8d4 01be 8e9e f7bd 3dac cc3d
00000310: c821 3d3d a81b 85bb 7894 e1bd d968 f63b
00000320: 053a 23bd 3a16 353c 7f3a eb3d e2e6 0fbe
00000330: 135e 98bd 113b 463d 7191 ebbc 46cf 98be
00000340: ce2b 84bd 3f94 a0bc 821b 50bd 2161 08be
00000350: 0142 dbbd 4679 c83d 65b1 763e c47d 5c3d
00000360: 9457 30bf a248 09ba 332b 2a3e 956b 5d3d
00000370: 1678 033e ca58 f83d 5388 68bf a98f debe
00000380: fb49 ad3c 7da9 d7be b9ca e8bd de39 25bd
00000390: ce88 dfbe f23b e03d 06d4 9b3d 0479 70b9
000003a0: 4c6d 933d d36e 583e 942f 033e 34f8 cdbe
000003b0: 213e babd ff8c 69be 12cd 393d 4fbc b53d
000003c0: a1b3 bdbe 98cd 10bc d3d5 d1bd 6c2e bfbd
000003d0: e0df c8bd 3699 473c d7e1 f03c d002 3fbc
000003e0: d5a7 78bd 67d7 7b3d 8e2f 463e 3b35 9f3b
000003f0: ffd3 f23c c7dd 003e 6efb 91be eeb9 113d
-0.003486661 -0.07095472 0.33346176 0.021751652 0.023085298 -0.074800216 0.013732542 -0.038829364
0.0388668 0.042466182 0.06660094 0.002988755 -0.07880199 0.06596945 -0.01481799 0.066153795
0.13350984 -0.023650015 0.09789231 -0.09871903 -0.028469931 -0.08192292 -0.046423238 0.015417591
0.11089228 -0.076658286 0.041839246 0.018875005 -0.0076992675 -0.035880893 0.28333884 -0.006344001
0.11222567 0.114043854 0.0771851 0.11195723 0.11450328 0.11414814 0.13484038 -0.057827324
-0.09136612 0.07573134 0.0056678266 0.0051099244 -0.048460074 0.058515806 0.05813914 0.0042262822
0.022708386 0.16134511 0.103461534 -0.025779255 -0.016971435 0.01343114 0.056059465 -0.063921176
-0.0013293095 0.079544485 0.13636519 -0.17884575 0.14009859 -0.025622925 0.1268884 0.10870829
-0.019600322 -0.28675285 0.19155744 -0.0459702 0.07238389 -0.020336566 0.051857527 0.027590053
-0.0023321698 0.09458366 0.18482716 0.09982897 -0.10359301 -0.045783293 0.12407658 0.033717707
0.08730946 -0.05844541 0.07764202 0.053200085 -0.15999573 0.13188492 -0.06412766 0.016659755
0.17690617 0.10983556 -0.034026254 0.06247506 0.066154204 0.06858562 0.2481052 0.012107448
0.009809472 0.116145626 -0.0062742354 -0.03857646 -0.10012684 0.11708208 -0.06418043 0.038395587
-0.04406374 0.028970892 0.17214295 -0.19338585 -0.17339335 0.06371952 -0.06716929 -0.030450286
-0.08232493 0.24270703 -0.09411114 -0.13300443 -0.21009204 0.019396814 -0.040337704 0.12181169
-0.00016266122 0.015531758 0.0324711 -0.020439843 -0.20688573 0.118327655 -0.16210617 -0.0014296692
0.04794364 -0.13907014 -0.21179785 0.08860029 0.0656431 0.06568889 0.005124811 0.16001552
0.1035073 0.09129134 -0.25187522 0.007501257 0.049867343 0.038691763 0.105770834 -0.16256057
-0.068049476 0.10879719 -0.09333726 0.035042632 -0.017082216 -0.10206366 0.0026060168 0.04502981
0.13531233 -0.007466026 0.14666957 0.001796901 -0.10807758 0.09189777 -0.176566 -0.057992417
-0.3599322 0.05938187 -0.122456424 0.10020802 -0.063137114 0.124268994 -0.062384643 -0.122903824
-0.10118048 -0.110247135 -0.021198714 -0.03830421 0.053616248 0.078820474 -0.0646042 0.035193413
0.05887011 -0.15480447 0.11213988 0.018319963 0.094011374 0.039057508 -0.104683965 -0.11047553
0.00032385753 -0.05140668 -0.077615544 0.14637378 -0.07170647 0.08665249 0.11016101 0.06319934
-0.27757317 -0.12678802 -0.12090789 0.09993789 0.046174794 -0.004062135 -0.11014646 0.007519823
-0.039850254 0.0110526625 0.114857666 -0.14052919 -0.07439818 0.048396174 -0.028755875 -0.29845637
-0.064536676 -0.01960194 -0.050807483 -0.13318302 -0.107059486 0.09788756 0.24091108 0.053830877
-0.68883634 -0.00052369584 0.16618042 0.054057676 0.12838778 0.1212631 -0.90833014 -0.4346898
0.02115344 -0.42121497 -0.11366791 -0.04033839 -0.4365906 0.10948934 0.076088 -0.00022933265
0.07198581 0.21136026 0.12811118 -0.40228426 -0.090938814 -0.22807692 0.045361586 0.08873808
-0.37051108 -0.00883808 -0.10245862 -0.09335026 -0.09808326 0.012182524 0.029404564 -0.011658385
-0.060706932 0.06148472 0.19354078 0.0048586405 0.029642103 0.12584601 -0.28512138 0.035577707

2.bias f4 [32]
00000000: c0d7 a3bd 63bf aa3d 9273 083e 4d0e e5bd
00000010: 5ec0 8bbd 8317 463d 5bec 8a3d 72d1 c0bd
00000020: 39bf 173d 10ff 653d ce8e b9bd ce4d a2bb
00000030: 49b5 14bc f1f1 fe3d f3ee dfbc dec4 2f3d
00000040: f104 253e 537b 43bc d851 d0ba 4953 b3bd
00000050: 0f15 103e eae2 1e3e f3e0 b13c 25f6 dabc
00000060: f906 d43d 08ed f2bd 8d85 083d 0128 aa39
00000070: f77e b0bb aa57 8bbd 0d35 ff3d 9a2a a2bc
-0.080001354 0.08337285 0.13325337 -0.11184368 -0.068238005 0.048362266 0.067833625 -0.094149485
0.0370476 0.05615145 -0.09060441 -0.0049531227 -0.009076425 0.124484904 -0.02733562 0.042912357
0.16115166 -0.011931258 -0.0015893532 -0.0875612 0.14070533 0.15516248 0.02171371 -0.026728699
0.103528924 -0.118616164 0.03333049 0.00032454732 -0.005386229 -0.0680383 0.124612905 -0.019795705

4.weight f4 [1, 32]
00000000: 9ef1 3f3e e8ce 6b3e c978 dfbd 01b2 c5be
00000010: a913 243c b138 efbe ac86 10be 2026 82be
00000020: 1898 bcbd 6714 b63e 0252 cdbe 1d41 dbbe
00000030: efe3 aebd aa55 68bd 2164 efbd e366 2f3d
00000040: df08 88be c7d9 113d 6625 463e b493 dd3d
00000050: eee6 4cbe 01ef 6f3e d480 ba3d 2bd7 5cbe
00000060: 4361 15be 87c2 c3bc ca27 493e 69f9 34be
00000070: 5077 99bd 6f18 823e 57d3 1abe 55dc 8ebe
0.18744513 0.23028147 -0.1091171 -0.3861237 0.010014453 -0.4672294 -0.14113873 -0.25419712
-0.09208697 0.3556244 -0.4010163 -0.42823115 -0.08539569 -0.05672232 -0.1168902 0.04282273
-0.26569268 0.03560808 0.19350204 0.10819188 -0.20009968 0.23431017 0.09106603 -0.21566455
-0.14587884 -0.023896469 0.19644085 -0.17673267 -0.0749346 0.25409266 -0.15119682 -0.27902475
