wildfire_nn_weights1.pth (torch, 13578 bytes, 5 tensors)

model.0.weight f4 [64, 8]
-0.13037439 0.1762417 0.16691288 -0.46572372 -0.032546006 -1.0254174 -0.04450966 -0.5327978
0.5062157 0.6108268 -0.56876254 0.5086669 0.5812561 0.1618718 0.13405631 -0.14009434
0.041700546 0.20372082 0.42813227 -0.26464888 -0.8213362 0.62491024 0.042379532 0.09239632
-0.30246136 -0.15155536 -0.06218658 -0.6187442 0.86951023 0.3701764 0.08090549 -0.16367663
-0.289849 1.2510657 0.08562472 -0.3317933 -0.2564941 0.5213557 -0.4720363 0.31953543
0.20577991 0.39143497 0.08257137 0.17357078 -0.6137734 -0.19173725 0.53433675 0.09468908
0.14024667 -0.071137324 -0.028641026 -0.14213511 -0.20091029 -0.32901144 0.47905535 -0.15551256
0.80030596 0.007618751 -0.7262069 0.025969533 0.32097375 -0.12213914 -0.34867552 0.24524425
0.35069636 0.2639751 0.29118735 0.16837104 -0.80468714 0.57947516 -0.034151305 -0.48497093
-0.15932223 -0.6116128 -0.2754066 0.37517703 -0.44559345 -0.19660129 0.40189883 -0.111922115
-0.3430264 0.7068472 0.20403151 -0.005327912 0.20896842 0.15221019 0.3439577 0.65846455
-0.61417294 0.070190825 0.16258548 -0.10267131 -0.24427034 0.33961555 0.09171911 -0.15834741
-0.29138985 -0.08823257 0.10107475 -0.36904848 0.31476557 0.007227674 0.11931941 0.20201696
-0.17363335 0.241448 0.08366107 0.84438133 -0.42238122 0.54382926 -0.23894675 0.4282765
0.39203474 -0.13857776 0.15973616 -0.17476366 1.0052748 0.48169518 -0.26922286 0.20383014
0.25071993 -0.34519112 -0.68065 -0.03585705 -0.4878997 -0.3883724 0.34711856 -0.46575817
0.9587953 0.32355642 0.06547478 0.3354307 0.17147776 -0.81212914 0.039581563 -0.3872724
-0.41776398 0.46742892 -0.0114603825 -0.88728786 0.31721836 0.5640014 0.48094058 -0.20201322
-0.17571999 0.44680563 0.38707745 -0.6903022 0.76548 0.27052465 -0.14706974 -0.7387234
0.4227218 -0.4094762 -1.4497007 -0.11332985 0.5613408 -0.304672 0.299238 -0.2812188
0.64246684 -0.32454446 0.11992851 0.42938033 -0.03753335 0.038459238 0.21239515 -0.22081535
0.9030084 -0.38435233 -0.20220388 -0.050744712 0.3975619 -0.4912601 -0.055223525 0.2753824
-0.0029982487 -0.13395938 -0.24354523 0.22015817 -0.08916808 0.5215377 -0.34595758 -0.028545106
-0.59023166 0.010372359 -0.5107836 0.13821648 0.27448115 0.98402816 -0.05469593 -0.1797971
-0.25635412 -0.19299158 -0.076956585 -0.5023607 0.60094285 -0.3741217 -0.21015286 -0.012163596
-0.32592332 0.11698229 -0.14208834 -1.1034789 0.8586699 0.14924999 -0.12836254 -0.09281504
0.10483502 0.17452143 -0.3052157 -0.33654878 0.5401656 0.33526975 -0.028960507 -0.8566767
-0.09068464 0.99984825 0.24229643 -0.41187167 0.42014885 -0.44234282 0.54011035 -0.007052176
-0.35543215 0.34395584 -0.30748308 0.6866188 -0.64530784 0.40444875 -0.6311349 0.4925633
-0.43006945 -0.18588997 -1.4566756 0.035042036 -0.3793707 0.746428 -0.21426536 0.12351338
-0.35032198 0.12081639 -0.30179617 0.49883318 -0.5893679 -0.54429924 0.021845976 0.11948046
0.74797267 -0.031359073 -0.2283246 0.86733097 0.23337494 0.10519636 0.6891387 -0.47030687
00000000: dd80 05be b478 343e 36eb 2a3e 5773 eebe
00000010: f64e 05bd e140 83bf c34f 36bd 7065 08bf
00000020: 5a97 013f 255f 1c3f 6c9a 11bf fe37 023f
00000030: 33cd 143f b9c1 253e 0f46 093e e474 0fbe
00000040: 31ce 2a3d 319c 503e 2734 db3e 0f80 87be
00000050: 1743 52bf 1efa 1f3f 2996 2d3d 483a bd3d
00000060: 37dc 9abe 5431 1bbe 5bb7 7ebd 0566 1ebf
00000070: 3998 5e3f c387 bd3e c7b1 a53d d99a 27be
00000080: 1767 94be ec22 a03f 035c af3d d0e0 a9be
00000090: 3253 83be 9177 053f beae f1be 269a a33e
000000a0: f8b7 523e 2a6a c83e 2e1b a93d 8abc 313e
000000b0: 4120 1dbf c556 44be 4bca 083f 59ec c13d
000000c0: d39c 0f3e 72b0 91bd 96a0 eabc de8b 11be
000000d0: 6dbb 4dbe 3074 a8be be46 f53e af3e 1fbe
000000e0: dae0 4c3f b7a6 f93b b2e8 39bf 0fbe d43c
000000f0: ac56 a43e 1624 fabd 9985 b2be 4f21 7b3e
00000100: 798e b33e bf27 873e 8216 953e 7569 2c3e
00000110: faff 4dbf 7c58 143f 3de2 0bbd 1c4e f8be
00000120: 5e25 23be a892 1cbf 1802 8dbe 3417 c03e
00000130: d324 e4be d951 49be afc5 cd3e 6c37 e5bd
00000140: 28a1 afbe f0f3 343f a3ed 503e c495 aebb
00000150: d1fb 553e fddc 1b3e 391b b03e 2291 283f
00000160: 703a 1dbf 35c0 8f3d cf7c 263e 5645 d2bd
00000170: 0122 7abe 17e2 ad3e 3bd7 bb3d d325 22be
00000180: 0d31 95be 47b3 b4bd 4700 cf3d ecf3 bcbe
00000190: f428 a13e 20d6 ec3b bc5d f43d 89dd 4e3e
000001a0: f1cc 31be 253e 773e 7f56 ab3d 6029 583f
000001b0: 5a42 d8be 6538 0b3f 75ae 74be 0f47 db3e
000001c0: c7b8 c83e 54e7 0dbe e091 233e 3ff5 32be
000001d0: d8ac 803f c0a0 f63e 94d7 89be d9b8 503e
000001e0: 5d5e 803e e4bc b0be 143f 2ebf d8de 12bd
000001f0: fdcd f9be bfd8 c6be 86b9 b13e db77 eebe
00000200: 9c73 753f 30a9 a53e a417 863d 93bd ab3e
00000210: de97 2f3e b2e7 4fbf 4720 223d 9148 c6be
00000220: 29e5 d5be d852 ef3e 54c4 3bbc 4c25 63bf
00000230: 726a a23e 6562 103f d83d f63e 8edc 4ebe
00000240: f1ef 33be b5c3 e43e 042f c63e a5b7 30bf
00000250: 7ff6 433f 3582 8a3e 7399 16be fa1c 3dbf
00000260: fe6e d83e dda6 d1be cb8f b9bf 7b19 e8bd
00000270: 08b4 0f3f f8fd 9bbe b935 993e e9fb 8fbe
00000280: b578 243f b12a a6be 149d f53d bdd7 db3e
00000290: 92bc 19bd 6f87 1d3d 1d7e 593e 6b1d 62be
000002a0: 8f2b 673f d4c9 c4be 890e 4fbe b0d9 4fbd
000002b0: 3c8d cb3e 7286 fbbe 1032 62bd ecfe 8c3e
000002c0: 447e 44bb a62c 09be ec63 79be 2571 613e
000002d0: c19d b6bd 7f83 053f 5a21 b1be 6dd7 e9bc
000002e0: 6c19 17bf d4f0 293c b7c2 02bf 9f88 0d3e
000002f0: cb88 8c3e 45e9 7b3f d708 60bd bb1c 38be
00000300: d940 83be 969f 45be 6a9b 9dbd b69a 00bf
00000310: 64d7 193f e18c bfbe 5032 57be d249 47bc
00000320: 6cdf a6be 6994 ef3d 9b7f 11be cc3e 8dbf
00000330: cad1 5b3f fdd4 183e 7871 03be d015 bebd
00000340: beb3 d63d bfb5 323e 3b45 9cbe 1f50 acbe
00000350: 4b48 0a3f 7aa8 ab3e 963e edbc 2a4f 5bbf
00000360: deb8 b9bd 0ef6 7f3f 8e1c 783e d8e0 d2be
00000370: c01d d73e c27a e2be ac44 0a3f f115 e7bb
00000380: 34fb b5be fb1a b03e 6c6e 9dbe 40c6 2f3f
00000390: e532 25bf e813 cf3e 0f92 21bf 4231 fc3e
000003a0: 1032 dcbe f159 3ebe 5974 babf 3d88 0f3d
000003b0: e03c c2be e815 3f3f 6168 5bbe 95f4 fc3d
000003c0: 675d b3be 956e f73d 0785 9abe 1067 ff3e
000003d0: d1e0 16bf 3257 0bbf 55f6 b23c 2cb2 f43d
000003e0: 237b 3f3f 5f72 00bd edcd 69be 6709 5e3f
000003f0: d7f9 6e3e 3071 d73d 656b 303f 10cc f0be

model.0.bias f4 [64]
0.7778681 0.43273968 -0.04129089 0.03453855 -0.3079435 0.52355516 0.44137415 0.34940955
0.41273126 -0.83054644 -0.038196467 0.8265331 0.17450382 0.07019291 -0.16487537 0.023331713
0.08916205 -0.60101426 0.015929345 -0.88794625 0.1533005 -0.20301488 -0.02570159 -0.74960124
-0.3962236 -0.823323 -0.1594378 0.15720093 -0.79375905 -0.7069364 0.25619012 -1.0428791
0.0098580755 -0.43845117 -0.11942184 -0.48891768 -0.23281196 0.092784785 0.016828926 -0.11563137
-0.080957845 -1.1732937 -0.020824319 -0.09752179 -0.8527029 0.05350181 -1.1069455 -0.51340294
-0.30880746 0.5067241 -0.40868545 0.18349725 -0.027622385 -0.71446306 -0.0060671554 -0.8579735
-0.074149035 -0.45048967 -0.62337154 0.13065565 0.12431293 0.35872716 0.1844082 -0.67178315
00000000: 5d22 473f 0e90 dd3e a320 29bd 4b78 0d3d
00000010: c5aa 9dbe b607 063f cbfb e13e cfe5 b23e
00000020: 8351 d33e b19e 54bf e673 1cbd ac97 533f
00000030: 21b1 323e 4dc1 8f3d 17d5 28be 2622 bf3c
00000040: 989a b63d 12dc 19bf 427e 823c 7250 63bf
00000050: cefa 1c3e 22e3 4fbe 248c d2bc dee5 3fbf
00000060: d2dd cabe 4cc5 52bf aa43 23be 48f9 203e
00000070: cb33 4bbf c9f9 34bf 5a2b 833e 107d 85bf
00000080: c483 213c ac7c e0be 7093 f4bd 6b53 fabe
00000090: 4266 6ebe f305 be3d d1dc 893c 24d0 ecbd
000000a0: 3acd a5bd 7d2e 96bf c397 aabc 81b9 c7bd
000000b0: bd4a 5abf b724 5b3d 64b0 8dbf 606e 03bf
000000c0: 031c 9ebe acb8 013f 383f d1be b4e6 3b3e
000000d0: 5748 e2bc 0de7 36bf fdce c6bb 27a4 5bbf
000000e0: 73db 97bd 95a6 e6be 4795 1fbf 98ca 053e
000000f0: c797 fe3d 16ab b73e 81d5 3c3e fbf9 2bbf

model.2.weight f4 [32, 64]
0.066838436 0.15474363 -2.2055469 0.02177068 0.13788575 -0.19417815 -0.32366875 -0.25252587
-0.72026986 -0.038069006 -0.5324464 0.22980358 0.13108145 0.21083637 0.09478925 0.46338853
-0.23442794 0.20606257 0.15575588 -0.42062193 0.21502303 0.21271825 0.039948467 -1.3508203
0.14659664 -0.058851086 0.024841826 -0.07068593 -0.46772283 -1.354254 -0.001686135 -0.69302356
-0.58340365 -0.16577767 -0.4308752 -0.43326417 0.007173481 0.040827222 -0.0024452417 0.18985821
0.028518172 -1.4147294 -0.052805945 -0.3658661 0.19021668 -0.10476633 0.8604957 -0.39894402
-0.7670172 0.24092866 -0.5315953 0.16860902 -0.029799914 -0.12645978 -0.09799929 -0.7508926
0.20998274 0.28654435 -0.21653375 0.47322947 0.27487287 -0.07609496 0.25878334 -1.0986218
0.11440114 -0.29188478 -0.25207892 0.0614199 0.6981537 -0.37019354 -0.15465218 -0.14296295
-0.46039593 0.025940105 -0.4883161 -0.028808923 -0.05025464 0.34421584 0.295038 0.04981139
-0.32067564 -1.5061929 0.08779195 0.17197709 0.2837397 0.23327784 0.13767 -0.6137678
-0.09960982 -0.9483193 -0.32883334 -0.29885912 -0.66862357 0.018004589 -0.33728376 -1.1980356
-0.02513096 -0.19491723 0.69039714 0.107065 0.6212179 -1.1299042 0.009081834 -0.3929786
0.016977705 -0.8719671 0.11202672 0.4021931 -0.6788998 -0.08358483 -0.30306888 -0.43884775
0.43345743 -0.25626773 0.25749817 0.46749127 0.015263464 0.47547433 0.0060035908 -0.0886589
0.22364992 0.3292229 -0.10376039 0.20043688 0.21116957 -0.006769377 -1.0379466 0.39653626
-0.8009998 0.23869845 -0.16353285 -0.5004934 -0.2179274 -0.31411907 0.33781037 -0.080020376
0.10282083 0.54251504 -0.049232874 0.24067886 0.008379303 0.28766316 -0.010421041 -0.123721756
-0.3254388 -0.11801465 0.055238474 -0.6920833 -0.04943264 0.08099157 0.15424083 -0.3929656
0.08007721 0.32768393 0.5216371 0.029004233 0.090200245 0.006730811 -0.05623054 -1.5358179
0.91861516 0.06295223 0.38469702 0.10470639 0.28997853 -0.5261533 0.26014408 0.10560608
-0.16630763 0.14798585 -0.06984842 -0.1422241 -0.07255666 -0.11925866 0.11402894 -0.51079726
-0.16971108 0.1666503 -0.40986955 0.055287436 0.35797608 0.26240748 0.52218443 0.6436384
-0.7734143 -0.547247 -0.7969142 0.07965039 0.05546504 0.26704934 0.1095493 0.4222437
-0.12299027 -0.28681 -0.21669886 0.22854185 -0.7700119 0.18780915 0.073865205 0.6785119
0.8471764 -0.052904025 -0.022474036 -0.024174318 -0.00507819 0.6159853 -0.59996665 -0.16733277
-1.441426 -0.03924055 0.02597649 0.49390787 -0.09424099 0.17211658 0.02000146 0.0076329913
0.055459056 -0.65181696 0.06172775 -0.18747042 0.2989198 -0.26026234 0.05230164 -0.6189311
-0.50736713 -0.48290175 0.39691067 0.53729266 -0.53234285 0.18627524 -0.052476373 -0.5181372
-0.07056762 -0.6426736 0.25261715 -0.0624406 0.31165066 -0.7706674 -0.17422356 -0.013704053
-1.0359961 -0.21440665 0.13176414 0.4295406 -0.32006213 -0.07803157 -0.115444936 -0.12845367
0.045148548 -0.19355948 -0.8579818 0.2222983 0.35837832 -0.4451821 0.294001 0.27535227
00000000: 97e2 883d 1d75 1e3e ae27 0dc0 6d58 b23c
00000010: ec31 0d3e a3d6 46be e9b7 a5be 124b 81be
00000020: 9b63 38bf 3fee 1bbd 684e 08bf a151 6b3e
00000030: 373a 063e 7de5 573e de20 c23d 4341 ed3e
00000040: e10d 70be 1102 533e 787e 1f3e c25b d7be
00000050: ff2e 5c3e d0d2 593e 01a1 233d aee7 acbf
00000060: 6e1d 163e d60d 71bd 1681 cb3c c9c3 90bd
00000070: 5e79 efbe 3258 adbf 4d01 ddba fe69 31bf
00000080: f159 15bf 9fc1 29be ad9b dcbe cdd4 ddbe
00000090: 850f eb3b 723a 273d 5940 20bb 316a 423e
000000a0: f19e e93c da15 b5bf 0c4b 58bd cd52 bbbe
000000b0: 29c8 423e bb8f d6bd 7249 5c3f 6442 ccbe
000000c0: 3d5b 44bf 01b6 763e a116 08bf d8a7 2c3e
000000d0: f31e f4bc ac7e 01be dab3 c8bd 7f3a 40bf
000000e0: b705 573e f1b5 923e 06bb 5dbe 224b f23e
000000f0: 23bc 8c3e add7 9bbd 407f 843e a49f 8cbf
00000100: 254b ea3d ec71 95be 7d10 81be 6f93 7b3d
00000110: 33ba 323f 028a bdbe 245d 1ebe e164 12be
00000120: 04b9 ebbe 5880 d43c 9104 fabe b100 ecbc
00000130: cfd7 4dbd 0f3d b03e 390f 973e 0707 4c3d
00000140: 992f a4be eeca c0bf 44cc b33d c31a 303e
00000150: 5446 913e 63e0 6e3e 5df9 0c3e e31f 1dbf
00000160: 3c00 ccbd 0ec5 72bf d85c a8be 1004 99be
00000170: ea2a 2bbf 5c7e 933c 75b0 acbe 3b59 99bf
00000180: 71df cdbc 6298 47be debd 303f e544 db3d
00000190: 2308 1f3f b3a0 90bf f9cb 143c 7e34 c9be
000001a0: d414 8b3c 3c39 5fbf 446e e53d 41ec cd3e
000001b0: 61cc 2dbf 862e abbd d82b 9bbe a7b0 e0be
000001c0: 22ee dd3e 8635 83be cdd6 833e 045b ef3e
000001d0: 9c13 7a3c 5f71 f33e c5b9 c43b cc92 b5bd
000001e0: 7c04 653e e78f a83e 5480 d4bd 533f 4d3e
000001f0: d63c 583e a6d1 ddbb 6fdb 84bf cd06 cb3e
00000200: 530e 4dbf 5e6d 743e 2875 27be 5620 00bf
00000210: 5c28 5fbe 37d4 a0be 7bf5 ac3e b9e1 a3bd
00000220: ba93 d23d 44e2 0a3f 69a8 49bd 8574 763e
00000230: 5849 093c 9648 933e 04bd 2abc d561 fdbd
00000240: ea9f a6be aab1 f1bd bd41 623d 5f2c 31bf
00000250: e179 4abd e9de a53d 4ff1 1d3e ca32 c9be
00000260: 85ff a33d 30c6 a73e 028a 053f 499a ed3c
00000270: e8ba b83d 238e dc3b ff51 66bd ae95 c4bf
00000280: 5d2a 6b3f 19ed 803d 02f7 c43e 4e70 d63d
00000290: 1178 943e fcb1 06bf 9b31 853e 0048 d83d
000002a0: 8c4c 2abe 9a89 173e b00c 8fbd 32a3 11be
000002b0: 9698 94bd e23d f4bd 0188 e93d 9cc3 02bf
000002c0: bec8 2dbe 60a6 2a3e 6cda d1be 1475 623d
000002d0: a448 b73e 465a 863e e1ad 053f 7cc5 243f
000002e0: 7bfe 45bf 6118 0cbf 9202 4cbf be1f a33d
000002f0: 4f2f 633d b1ba 883e 625b e03d 5430 d83e
00000300: 53e2 fbbd c3d8 92be 4ee6 5dbe e006 6a3e
00000310: 801f 45bf 0b51 403e a446 973d f5b2 2d3f
00000320: 8de0 583f e4b1 58bd 781b b8bc 3809 c6bc
00000330: f266 a6bb 36b1 1d3f 6a97 19bf 4859 2bbe
00000340: a680 b8bf b3ba 20bd a6cc d43c 7ee1 fc3e
00000350: 6c01 c1bd 543f 303e 1ada a33c 2c1e fa3b
00000360: 0929 633d 7add 26bf 3dd6 7c3d 3ff8 3fbe
00000370: 040c 993e 1b41 85be 3f3a 563d 4572 1ebf
00000380: d0e2 01bf e63e f7be e037 cb3e 038c 093f
00000390: 9f47 08bf f0be 3e3e 77f1 56bd a4a4 04bf
000003a0: c285 90bd 4286 24bf 0957 813e b7c1 7fbd
000003b0: ad90 9f3e 754a 45bf a967 32be f786 60bc
000003c0: 859b 84bf 6b8d 5bbe 2eed 063e bfec db3e
000003d0: 2fdf a3be 04cf 9fbd 656e ecbd 5c89 03be
000003e0: afed 383d 7534 46be b2a4 5bbf 2aa2 633e
000003f0: 5d7d b73e e9ee e3be 4d87 963e f9fa 8c3e

model.2.bias f4 [32]
0.6033358 0.50004035 0.22799204 0.21283858 -0.88130105 -0.13861004 -0.20832534 -0.118050605
0.5460942 0.2254345 -0.4376076 0.1680551 0.25922585 0.37384316 0.395604 0.41046742
-0.5715453 -0.29389238 0.39422438 -0.00012172941 0.21782891 0.042062957 0.39809057 -0.4002564
0.11389584 0.32328662 0.5405864 0.58505046 -0.09519198 -0.0015940991 -0.008438256 0.03412422
00000000: 3774 1a3f a502 003f bf76 693e 5bf2 593e
00000010: f29c 61bf caef 0dbe 3d53 55be 84c4 f1bd
00000020: d4cc 0b3f 4dd8 663e 1a0e e0be a316 2c3e
00000030: 40b9 843e 5f68 bf3e 9c8c ca3e c928 d23e
00000040: cb50 12bf 1079 96be c7d7 c93e fb48 ffb8
00000050: 8b0e 5f3e 354a 2c3d 87d2 cb3e 68ee ccbe
00000060: 3942 e93d d385 a53e df63 0a3f dec5 153f
00000070: 03f4 c2bd 17f1 d0ba 9c40 0abc d7c5 0b3d

model.4.weight f4 [1, 32]
-0.2927275 -0.2743322 0.17935593 -0.28803855 -0.4707638 -0.49652734 -0.51402634 1.2694925
1.6088164 -0.22739466 0.39039642 -0.29647732 0.20945653 -0.574395 -0.11268481 -0.13712226
2.5867755 0.35081962 -0.28776184 0.13593097 -1.0500096 -0.9162167 0.111114554 1.0200288
-0.2358983 0.14442475 -0.14372574 -0.119756185 -0.25759095 0.1514823 0.16230138 0.49569634
00000000: 61e0 95be 4575 8cbe 15a9 373e ca79 93be
00000010: f407 f1be d538 febe 3b97 03bf bb7e a23f
00000020: b2ed cd3f 25da 68be 0ae2 c73e e0cb 97be
00000030: c67b 563e 8d0b 13bf 4bc7 e6bd c769 0cbe
00000040: bb8d 2540 a19e b33e 8555 93be 7d31 0b3e
00000050: b766 86bf 2d8d 6abf 0790 e33d 4e90 823f
00000060: 538f 71be 15e4 133e d72c 13be bb42 f5bd
00000070: f6e2 83be 2d1e 1b3e 5532 263e e9cb fd3e
