wildfire_nn_weights125.pth (torch, 13662 bytes, 5 tensors)

model.0.weight f4 [64, 8]
0	0x3ea235ab	0.3168157
1	0x3e8a2948	0.2698462
2	0x3de090f8	0.109651506
3	0x3ef07d57	0.46970627
4	0xbdef55e7	-0.116863064
5	0x3f03760d	0.51352006
6	0x3e7942a3	0.24341826
7	0x3d377a39	0.044794295
8	0x3e163ddc	0.14672035
9	0xb9bfecfe	-0.00036606932
10	0xbe57adec	-0.2106244
11	0xbf25ca44	-0.6476176
12	0x3d73be42	0.059507616
13	0xbee87835	-0.4540421
14	0xbe9bafbf	-0.3040752
15	0xbd8c24ca	-0.068429545
16	0x3e997409	0.2997134
17	0x3e85b68c	0.26115835
18	0xbd9f29fd	-0.077716805
19	0xbe678bfb	-0.22611992
20	0x3f10a631	0.5650359
21	0x3d238899	0.03992519
22	0x3d930190	0.071780324
23	0x3e6c6cab	0.23088329
24	0x3d99b57c	0.075053185
25	0x3f80e044	1.006844
26	0x3d4341a0	0.047670007
27	0x3ed094ff	0.40738675
28	0xbd81c35b	-0.06336089
29	0x3d7b9c30	0.06142825
30	0x3eb697ea	0.35662776
31	0xbcf2af2b	-0.029624542
32	0xbedb1acd	-0.42793885
33	0x3f2bde43	0.6713602
34	0x3d24d2e0	0.04024017
35	0x3ea7384d	0.32660142
36	0xbed00c07	-0.40634176
37	0x3eac8e53	0.33702335
38	0xbe2dd410	-0.16975427
39	0x3e3826ff	0.17983626
40	0x3e9292f7	0.2862775
41	0x3e522533	0.20522003
42	0x3e0189f1	0.12650277
43	0xbc6bb619	-0.014386677
44	0x3e91c3f1	0.28469804
45	0xbe867c02	-0.26266485
46	0xbeabadfb	-0.33531174
47	0x3e181825	0.1485296
48	0x3dbc9a0b	0.09209069
49	0x3e6be6b4	0.23037225
50	0xbe8d3bc4	-0.2758466
51	0xbe86aa8c	-0.26301992
52	0xbe710dbd	-0.23540397
53	0xbf334b79	-0.7003704
54	0xbe1b2f53	-0.15154772
55	0x3d86453a	0.06556173
56	0xbe9be800	-0.3045044
57	0xbe0ffd78	-0.14061534
58	0xbd0dd815	-0.0346299
59	0xbde8f3f5	-0.11374656
60	0x3ef0f937	0.47065136
61	0x3df14c19	0.117820926
62	0xbe936013	-0.28784236
63	0xbc2e800c	-0.010650646
64	0xbe98c34c	-0.298365
65	0xbdf61940	-0.12016535
66	0x3dc95f49	0.09832627
67	0xbe6cb68b	-0.2311651
68	0x3e96e3d4	0.29470694
69	0x3e334b67	0.17509232
70	0x3e7b8a3c	0.24564451
71	0xbd56f198	-0.052476496
72	0xbdd3e918	-0.103471935
73	0xbe228a21	-0.15873004
74	0xbdafb82f	-0.08580052
75	0x3d6eff0e	0.058348708
76	0xbe83fcad	-0.25778714
77	0x3f08b001	0.5339356
78	0xbee20e3b	-0.44151482
79	0xbca72112	-0.020401511
80	0x3ecb53bd	0.39712325
81	0x3e8ff1ef	0.28114268
82	0xbcbce7fd	-0.02305984
83	0x3ed826bb	0.4221705
84	0x3e2b207b	0.16711609
85	0x3e442916	0.19156298
86	0xbef4cc64	-0.47812188
87	0xbb446596	-0.0029967776
88	0xbd23ee7d	-0.040022362
89	0xbea41129	-0.32044342
90	0xbec90121	-0.39258674
91	0xbec7a860	-0.38995647
92	0x3edb9e60	0.42894268
93	0x3b93776e	0.004500321
94	0xbe8e85f8	-0.27836585
95	0x3df9a124	0.12188938
96	0x3eeeb4d3	0.46622333
97	0x3c1e6494	0.009667534
98	0x3e442899	0.19156112
99	0x3e44c2ed	0.19214983
100	0xbdaa86fd	-0.08326528
101	0xbf0d5204	-0.5520327
102	0x3e10f2ae	0.14155075
103	0x3e56cbdb	0.20976202
104	0xbd654187	-0.055970695
105	0xbd9f6a8b	-0.07783993
106	0xbdd1bd0f	-0.10241138
107	0xbcd5a985	-0.02608181
108	0xbe6cc0d5	-0.23120435
109	0x3e875b08	0.2643664
110	0xbd8957e9	-0.06706221
111	0x3dbd5afb	0.09245869
112	0x3d4b287e	0.049599163
113	0xbec67c5b	-0.3876675
114	0xbe11059e	-0.14162299
115	0xbcaabd68	-0.020842269
116	0x3d9942b5	0.074834265
117	0xbeb00612	-0.3437963
118	0x3b4e4345	0.0031473201
119	0xbe06e14a	-0.13171878
120	0xbe496793	-0.19668417
121	0xbe892075	-0.26782575
122	0xba930786	-0.0011217452
123	0x3d2de47b	0.042454224
124	0xbd707400	-0.058704376
125	0x3d463cb9	0.048397753
126	0x3ce82d8c	0.028342031
127	0x3bceb126	0.006307739
128	0x3d9421c0	0.07233
129	0xbe7ca84e	-0.24673578
130	0x3e34f3e5	0.17671163
131	0x3c841558	0.016123459
132	0xbec39efe	-0.3820724
133	0x3da749ff	0.081684105
134	0x3e498e0d	0.19683094
135	0x3e55c92c	0.20877522
136	0xbed28c7b	-0.41122803
137	0x3dfa38bd	0.12217853
138	0xbe671a55	-0.22568639
139	0xbe782a75	-0.24234946
140	0x3b08b9e7	0.002086276
141	0xbf062665	-0.52402335
142	0xbe01e7e5	-0.12686117
143	0xbdf11529	-0.11771614
144	0xbf03dfda	-0.51513445
145	0x3d50ce29	0.05097786
146	0x3cbe09e5	0.023198077
147	0x3cef6702	0.029223923
148	0xbe970242	-0.2949391
149	0x3cef737e	0.029229876
150	0x3e55de39	0.20885552
151	0x3d203971	0.03911728
152	0xbea49254	-0.3214289
153	0xbe582d0e	-0.21110937
154	0x3e0d2093	0.13781957
155	0x3dbc1721	0.09184099
156	0x3e4cc7cd	0.19998093
157	0x3cd2a4f8	0.025713429
158	0xbe3555f3	-0.17708568
159	0xbe9f38a3	-0.31097898
160	0x3e103f37	0.14086615
161	0xbc89a6b0	-0.016803116
162	0x3e97b1bd	0.2962779
163	0x3e80d712	0.25164086
164	0xbc73dd12	-0.01488425
165	0xbe79f8f8	-0.2441138
166	0x3e3e5f74	0.185911
167	0xbd3212d1	-0.043474976
168	0xbf3229bb	-0.69594926
169	0x3e39ba9c	0.18137592
170	0x3d3a7e30	0.045530498
171	0xbd150aad	-0.036387134
172	0xbd6b7c8a	-0.057491817
173	0x3ed9c206	0.4253084
174	0x3e27fdfa	0.16405478
175	0x3cb6e2a5	0.02232487
176	0xbed6b3f0	-0.41934156
177	0xbdeb77ee	-0.11497484
178	0x3c88f6a1	0.016719164
179	0xbf0c6503	-0.5484163
180	0x3e968f17	0.29406044
181	0xbe266ebf	-0.16253184
182	0x3ec05821	0.37567237
183	0x3e2e4e14	0.17021972
184	0xbe82ad51	-0.25522855
185	0xbe756c44	-0.23967081
186	0xbf7233ab	-0.9461009
187	0xbe3e0043	-0.18554787
188	0xbe9629cd	-0.29328766
189	0xbe2c6f9f	-0.16839455
190	0xbe823637	-0.25431988
191	0x3d8568a8	0.06514102
192	0xbe311562	-0.17293313
193	0x3dbaadae	0.09115158
194	0xbd7e0df1	-0.062025014
195	0x3ef7f82f	0.48431537
196	0x3e1642b7	0.14673887
197	0x3e854cab	0.26035056
198	0xbe846d2e	-0.25864547
199	0x3e79f0b4	0.24408227
200	0x3d80e91e	0.062944636
201	0x3ee032fd	0.437889
202	0xbe19145c	-0.14949173
203	0xbe843792	-0.25823647
204	0xbe81b645	-0.25334373
205	0xbef73cb4	-0.482885
206	0x3eba064d	0.36332932
207	0xbdeb7b63	-0.114981435
208	0x3ed74ed7	0.42052338
209	0x3ee13fbc	0.43993938
210	0x3eea267f	0.45732495
211	0xbe15752c	-0.14595479
212	0xbe6ff509	-0.23433317
213	0xbde75da0	-0.112971544
214	0xbbc63efc	-0.006049989
215	0xbdd3040f	-0.103035085
216	0x3eb58a15	0.3545691
217	0x3ebcf60e	0.36906475
218	0xbee82b30	-0.4534545
219	0x3e1c4c80	0.15263557
220	0x3ec7f2ce	0.39052433
221	0xbd65ac2c	-0.0560724
222	0xbd30683b	-0.043068152
223	0xbdc0424e	-0.093876466
224	0xbe509652	-0.20369843
225	0xbd88cef4	-0.06680098
226	0x3e6636bd	0.22481818
227	0xbd573493	-0.052540373
228	0xbefe277d	-0.49639502
229	0xbd54ab18	-0.05192098
230	0xbcf7f419	-0.030267762
231	0x3ed3ade8	0.41343617
232	0xbe86bd1b	-0.2631615
233	0xbd69f0e0	-0.057114482
234	0x3db40c0b	0.087913595
235	0xbeed7112	-0.46375328
236	0x3e66187e	0.2247028
237	0x3cfa4f26	0.030555319
238	0xbd5abd14	-0.053402975
239	0xbe1f5394	-0.15559226
240	0xbc95d9b6	-0.01829229
241	0x3e19b0ac	0.15008801
242	0xbc0166be	-0.007898031
243	0x3ef00d35	0.46885076
244	0xbee8d540	-0.45475197
245	0x3d98cc13	0.07460799
246	0xbd552c42	-0.05204416
247	0xbd8e1adb	-0.06938716
248	0xbe55893c	-0.20853132
249	0x3dd2cf06	0.10293393
250	0x3e040772	0.12893465
251	0x3eda8f04	0.42687237
252	0xbd7c6055	-0.061615307
253	0x3e922eca	0.28551322
254	0xbea1626d	-0.31520405
255	0x3d003007	0.031295802

model.0.bias f4 [64]
0	0xbe7fbc7d	-0.24974246
1	0xbda9017d	-0.08252237
2	0xbe503d24	-0.20335823
3	0x3b4c7e68	0.0031203274
4	0xbddea144	-0.10870603
5	0xbeda421c	-0.42628562
6	0x3e264bc2	0.16239837
7	0xbf22d7bf	-0.6361045
8	0x3d891470	0.06693351
9	0xbe4eab30	-0.2018249
10	0xbe467c9d	-0.19383474
11	0x3d693f05	0.056944866
12	0x3a5aaddc	0.0008341947
13	0x3e41827a	0.18897429
14	0xbf0c9d77	-0.5492777
15	0xbf8044cf	-1.0020999
16	0x3e073ee9	0.13207592
17	0x3e80b246	0.25136012
18	0x3f4f4637	0.80966514
19	0x3e618a65	0.2202545
20	0xbdf9012c	-0.12158427
21	0x3e1e86e1	0.1548114
22	0xbf17d3b1	-0.5930739
23	0xbdf7194e	-0.12065373
24	0xbecf8627	-0.40532038
25	0x3dd10b4d	0.102072336
26	0xbd81d070	-0.063385844
27	0x3c94d905	0.01816989
28	0xbede3c9b	-0.43405613
29	0x3e859efc	0.26097858
30	0x3e81deee	0.25365394
31	0xbe9488a0	-0.29010487
32	0xbef6d16a	-0.48206645
33	0x3e020795	0.12698205
34	0xbcfecc8f	-0.0311034
35	0x3e62b51c	0.221394
36	0xbf1c7693	-0.6111843
37	0x3f1d5f7a	0.6147381
38	0x3e1d34a1	0.15352108
39	0x3e6841a8	0.22681296
40	0xbe23d1b6	-0.15997967
41	0xbe4e394b	-0.20139043
42	0xbf4f3503	-0.80940264
43	0xbef38567	-0.47562715
44	0xbda66643	-0.081249736
45	0x3e390db6	0.18071637
46	0x3ea407aa	0.32037097
47	0xbce8fb64	-0.028440185
48	0x3ddba3d8	0.1072461
49	0xbd6eba88	-0.05828336
50	0x3edf8677	0.43657276
51	0xbb29bcd4	-0.0025899904
52	0x3ebf5c24	0.37374985
53	0xbdc21baa	-0.09477933
54	0xbe9c985d	-0.30584994
55	0xbe3a8206	-0.18213663
56	0xbf02d424	-0.5110495
57	0x3ec096b3	0.37614974
58	0x3e828f89	0.25500134
59	0xbf0cc7b5	-0.5499223
60	0xbf250111	-0.6445475
61	0xbd853659	-0.065045066
62	0xbe96a7f3	-0.2942501
63	0x3edfcec6	0.43712443

model.2.weight f4 [32, 64]
0	0x3e8007c2	0.2500592
1	0xbdd41052	-0.10354675
2	0x3dda2fe2	0.10653664
3	0x3c979d4f	0.018507628
4	0x3c80e4ab	0.015734037
5	0xbe07ba73	-0.13254718
6	0xbe19aeb1	-0.15008046
7	0x3edbdc5f	0.42941567
8	0xbc146780	-0.009057879
9	0x3efe632f	0.49685046
10	0x3c8d0c03	0.017217642
11	0xbf069ada	-0.52580035
12	0x3da7c3cc	0.08191642
13	0xbe87a2a2	-0.26491266
14	0x3f0f79da	0.56045306
15	0x3df4d74b	0.119551264
16	0x3d3e5551	0.046468083
17	0xbe291983	-0.16513638
18	0x3d3d73f5	0.046253163
19	0xbe74e8ad	-0.23916884
20	0xbdc2c9a3	-0.095111154
21	0x3e9b3ac2	0.30318266
22	0x3ebe8078	0.3720739
23	0x3b3a15fe	0.0028394456
24	0x3dc7a2f6	0.09747879
25	0x3d4d0e59	0.05006251
26	0x3ea8fb2f	0.33004138
27	0xbd72fbdd	-0.059322227
28	0x3ded18af	0.11576974
29	0x3cb240ae	0.021759357
30	0xbc9ed31a	-0.01938777
31	0xbd08bd03	-0.03338338
32	0x3c870c5e	0.01648539
33	0xbe127c1a	-0.14305153
34	0x3d9242cd	0.071416475
35	0xbe85fe24	-0.26170456
36	0xbc61944f	-0.01376827
37	0xbe255f1d	-0.16149564
38	0x3e84ddef	0.25950572
39	0x3dc20716	0.09474008
40	0xbe4ebc03	-0.20188908
41	0xbe948754	-0.29009497
42	0x3f7913f6	0.9729608
43	0x3e7b8b45	0.24564846
44	0x3e58f953	0.2118886
45	0x3ce00b93	0.027349269
46	0x3e1343d2	0.1438134
47	0xbc9382cc	-0.018006705
48	0x3da99bac	0.08281645
49	0xbf16dc79	-0.58930165
50	0x3d5827fd	0.05277251
51	0x3ea343e7	0.31887743
52	0x3e1ad165	0.1511894
53	0xbe6fb9f4	-0.23410779
54	0x3e3dfc76	0.18553337
55	0x3e5f6842	0.21817115
56	0x3ec6cdf4	0.38829005
57	0xbf06e542	-0.5269357
58	0xbe92818d	-0.28614464
59	0x3f0e35c1	0.5555077
60	0x3e8447a0	0.25835896
61	0xbccd12b6	-0.025033336
62	0x3f12ee6f	0.5739507
63	0xbe76e9ea	-0.24112669
64	0xbe70f9f8	-0.23532856
65	0xbe28438a	-0.16432014
66	0xbd7fdf61	-0.06246889
67	0x3c94c9a7	0.018162562
68	0x3d9e7976	0.077380106
69	0xbdf80dba	-0.12111993
70	0x3d67bc8b	0.056576293
71	0x3d709394	0.05873449
72	0x3d127144	0.03575255
73	0xbd412bc9	-0.047160897
74	0xbe809989	-0.25117138
75	0xbe311b06	-0.17295465
76	0x3bd229c4	0.0064136703
77	0xbd169f89	-0.03677324
78	0xbde1c655	-0.11024157
79	0x3dc199b1	0.094531424
80	0xbcdc4651	-0.026888998
81	0xbde17441	-0.11008502
82	0xbc28cfa2	-0.01030341
83	0xbdc34e8e	-0.095364675
84	0xbd4423e6	-0.047885798
85	0x3a5a9ada	0.0008339115
86	0xbceb966a	-0.028758246
87	0x3c94dffc	0.01817321
88	0x3c1780f3	0.0092470525
89	0x3d9a6da7	0.07540446
90	0x3b80a48a	0.0039258646
91	0xbe6b87ea	-0.23001066
92	0xbccefae4	-0.025266118
93	0xbe1e8220	-0.15479326
94	0xbda0ed35	-0.07857744
95	0xbe2c1cf9	-0.16807927
96	0x3e1db392	0.15400532
97	0x3d42d3d4	0.047565296
98	0xbd9713be	-0.073768124
99	0xbdcb0490	-0.099129796
100	0xbc9f3b14	-0.01943735
101	0xbc47db97	-0.01219835
102	0xbdd0a479	-0.10187621
103	0xbcc34410	-0.023836166
104	0x3cc55da3	0.024092501
105	0xbe1481f5	-0.145027
106	0x3dd3d5b3	0.10343494
107	0xbe1f42f3	-0.15552883
108	0xbe04f26b	-0.129831
109	0x3d1784f3	0.036992025
110	0xbe288253	-0.16455965
111	0xbcf8eaa9	-0.030385332
112	0xbdb069c7	-0.086139254
113	0xbdb69872	-0.089157954
114	0xbd35841d	-0.044315446
115	0xbdb4c37f	-0.088263504
116	0xbe17f54b	-0.14839666
117	0xbcebb8bc	-0.028774612
118	0xbaa5e218	-0.0012655882
119	0x3d2e479f	0.042548772
120	0x3dc68122	0.09692599
121	0xbe244e04	-0.16045386
122	0xbe31b948	-0.17355835
123	0x3d9b76c9	0.07591016
124	0xbda5be22	-0.080929056
125	0xbdaab897	-0.08335989
126	0xbb7b8795	-0.0038380374
127	0x3c9dbb1a	0.019254256
128	0xbecce323	-0.40017042
129	0xbdb9dbf2	-0.09075154
130	0x3e210c0f	0.15727256
131	0xbf1ea1f7	-0.6196589
132	0xbf39c824	-0.72571015
133	0xbdf48fde	-0.11941503
134	0xbd9852e8	-0.07437688
135	0x3d994af7	0.074850015
136	0xbd3972a8	-0.04527536
137	0xbcf700f6	-0.030151825
138	0xbe16a7d4	-0.14712459
139	0x3dd286d2	0.10279621
140	0xbe0dfbc9	-0.1386558
141	0xbe169abd	-0.14707465
142	0xbd866207	-0.06561666
143	0xbf78c6b6	-0.9717821
144	0x3e537985	0.20651825
145	0x3d99646d	0.07489858
146	0xbd4d2277	-0.050081696
147	0x3d89fdf2	0.06737889
148	0x3cf86b9e	0.030324753
149	0xbe850e1f	-0.25987336
150	0xbebb1ef5	-0.36547056
151	0x3d9d0480	0.07666874
152	0x3dfbcb54	0.12294641
153	0x3ee67310	0.4500966
154	0x3de71636	0.11283533
155	0xbe8880a1	-0.26660636
156	0xbe151bb8	-0.14561355
157	0xbd895e6a	-0.06707461
158	0xbed1658c	-0.40897787
159	0x3e98c194	0.29835188
160	0x3ded8631	0.115978606
161	0xbe47fd0b	-0.19530122
162	0xbd391c01	-0.045192722
163	0xbd854a01	-0.06508256
164	0x3e11a583	0.14223294
165	0x3d1e25ec	0.038610384
166	0xbd4da463	-0.0502056
167	0x3d0bcc8e	0.034130625
168	0x3eb1576c	0.3463701
169	0x3de49bb1	0.11162508
170	0xbe8a4ead	-0.2701315
171	0xbd900068	-0.070313275
172	0x3d09500f	0.033523615
173	0x3d8bdd2c	0.068292946
174	0xbed27959	-0.41108206
175	0xbdff9107	-0.12478834
176	0x3e1656c6	0.14681539
177	0xbdc6b68c	-0.09702787
178	0x3ddd7cb3	0.108148
179	0xbedbc2ca	-0.4292205
180	0xbe826d28	-0.25473905
181	0x3e6889a7	0.2270876
182	0xbe7651a9	-0.24054588
183	0x3e2d30b0	0.16913104
184	0x3e18ffe3	0.14941363
185	0x3df7d587	0.12101274
186	0x3d8bd66d	0.06828008
187	0xbe8106ff	-0.2520065
188	0xbe014b09	-0.1262628
189	0x3b748bce	0.0037314775
190	0x3ce8deeb	0.028426608
191	0x3db817b8	0.08988899
192	0xbe08559b	-0.13313906
193	0xbe85335e	-0.26015753
194	0x3daebbf4	0.08531943
195	0x3dd2f81a	0.10301228
196	0xbd3d51f5	-0.04622074
197	0xbd444306	-0.04791548
198	0x3d8868ad	0.0666059
199	0xbbfa6007	-0.007640842
200	0x3d58681f	0.052833673
201	0xbe54711d	-0.20746274
202	0xbd8068a0	-0.06269956
203	0xbb6d0acc	-0.0036169766
204	0x3d842bb6	0.0645365
205	0xbda4c0dc	-0.080445975
206	0xbbed19d0	-0.007235743
207	0xbf481056	-0.78149927
208	0x3e185557	0.14876305
209	0x3de69756	0.11259334
210	0x3c680e15	0.014163514
211	0x3df6c80d	0.120498754
212	0x3d445b9d	0.04793893
213	0xbe2b5d57	-0.16734825
214	0x3e0199bb	0.126563
215	0x3d11c42b	0.03558747
216	0xbe24be37	-0.16088186
217	0xbe9d8e74	-0.30772746
218	0xbe76e856	-0.24112067
219	0xbe2bfc55	-0.16795476
220	0xbe203ab6	-0.15647396
221	0x3dda6eb6	0.10665648
222	0xbdbf9d05	-0.09356121
223	0x3d43031b	0.047610383
224	0x3d96e2c9	0.073674746
225	0xbd1512a4	-0.03639473
226	0xbeca0c35	-0.39462438
227	0xbd471ae8	-0.048609644
228	0xbed9e9eb	-0.42561278
229	0xbd3889a2	-0.045053132
230	0xbbc9a432	-0.006153607
231	0x3defb4b0	0.11704385
232	0x3e5627e3	0.20913653
233	0xbd172b8a	-0.036906756
234	0xbe6d0e68	-0.23150027
235	0xbd56f1a4	-0.05247654
236	0xbda1d1f3	-0.07901373
237	0x3dfeea92	0.124470845
238	0x3dcda257	0.100407295
239	0xbec91516	-0.392739
240	0x3d8dab2f	0.06917416
241	0x3dedb855	0.11607424
242	0x3dd7f85a	0.10545416
243	0x3dc04f11	0.09390081
244	0xbd58e085	-0.052948494
245	0x3e98c715	0.29839388
246	0xbd920cb1	-0.07131327
247	0xbeb6e406	-0.35720843
248	0x3d3c3b6f	0.045955118
249	0xbd4120af	-0.04715031
250	0x3cfebc7d	0.031095738
251	0x3dcbaa44	0.09944585
252	0xbeaa1595	-0.3321959
253	0x3ceb97a1	0.028758826
254	0x3e2a08fe	0.16604993
255	0x3c9d3928	0.019192293

model.2.bias f4 [32]
0	0xbea98e34	-0.33116305
1	0xbdcfbc6a	-0.10143359
2	0x3d1e5648	0.038656503
3	0x3dc8fdf1	0.098140605
4	0x3e2059c7	0.15659247
5	0x3d2ee1df	0.042695876
6	0xbd0c0a8e	-0.034189753
7	0x3d34a0aa	0.044098534
8	0xbd8256dc	-0.06364223
9	0x3dccff9e	0.100096926
10	0x3e8493de	0.25894064
11	0xbe3154f9	-0.17317571
12	0x3e7748e2	0.24148896
13	0xbe18b898	-0.14914167
14	0xbe009c66	-0.12559661
15	0xbd999bd0	-0.07500422
16	0x3de35853	0.11100831
17	0xbd622e07	-0.055219676
18	0xbe21c85d	-0.15799089
19	0xbe9a6534	-0.30155337
20	0x3e9838eb	0.29730925
21	0x3df3c0bf	0.11901998
22	0x3e1e3788	0.15450871
23	0x3ebc1845	0.36737266
24	0xbd8e0d56	-0.069361374
25	0x3e809344	0.25112355
26	0x3d5675fc	0.052358612
27	0x3ec0bff2	0.37646443
28	0x3e22058f	0.15822433
29	0x3dc6c47c	0.09705445
30	0xbd7852e8	-0.06062594
31	0x3c8bc38f	0.017061023

model.4.weight f4 [1, 32]
0	0xbf072853	-0.52795905
1	0xbce501bd	-0.02795493
2	0xbe1766f2	-0.14785364
3	0xbcb14fee	-0.021644559
4	0xbe0c4073	-0.1369646
5	0xbe94030f	-0.28908584
6	0x3bf8d3ea	0.0075936215
7	0xbe48bb1c	-0.19602627
8	0xbe178f6e	-0.14800808
9	0xbd71d076	-0.059036694
10	0xbe41289d	-0.18863149
11	0x3f1fd4ee	0.6243428
12	0xbeba0647	-0.36332914
13	0xbf046126	-0.51710737
14	0x3e9f13f2	0.31069905
15	0x3e80605d	0.2507352
16	0xbedc1c97	-0.42990562
17	0x3ed5d282	0.41762167
18	0x3e3860ff	0.18005751
19	0x3ea47b6a	0.32125407
20	0xbe589297	-0.2114967
21	0xbe2389b1	-0.15970494
22	0xbe09098b	-0.13382547
23	0xbccb7c96	-0.02483968
24	0x3e0967c9	0.13418497
25	0xbe4ef2c7	-0.202098
26	0xbe1bf5b7	-0.15230452
27	0xbe3eae1f	-0.1862111
28	0xbe5ffffe	-0.21874997
29	0x3e879ec2	0.2648831
30	0x3d48eae7	0.049052145
31	0xbe2a7347	-0.16645537
