wildfire_nn_weights1_no_Std_Confidence.pth (torch, 13566 bytes, 5 tensors)

model.0.weight f4 [64, 7]
0	0xbef32855	-0.47491708
1	0xbdfd4474	-0.12366572
2	0xbc71d851	-0.0147610465
3	0xbefa5ac8	-0.48897386
4	0x3e89c938	0.2691133
5	0xbdb85b0b	-0.0900174
6	0x3e38120d	0.17975636
7	0x3e9bd40a	0.3043521
8	0x3e83fc89	0.25778607
9	0x3e618738	0.22024238
10	0x3b25e9ba	0.0025316314
11	0x3d879bcc	0.06621513
12	0x3f23da3c	0.64004874
13	0x3e537306	0.20649347
14	0xbf637ad5	-0.888593
15	0xbde688b3	-0.11256542
16	0xbecdaeb6	-0.40172356
17	0xbe9cc78e	-0.30620998
18	0xbeb2677b	-0.34844574
19	0x3d8bfa5b	0.06834861
20	0x3ccf0774	0.025272109
21	0xbf040edf	-0.5158519
22	0xbe7df8ae	-0.24801895
23	0x3e525506	0.20540246
24	0xbec69aa1	-0.38789847
25	0xbe09ed3b	-0.13469402
26	0x3efa6bfa	0.48910505
27	0x3e6bac52	0.23014954
28	0x3f067253	0.52518195
29	0xbe7d7463	-0.2475143
30	0x3bcb769c	0.0062092077
31	0x3ec23af6	0.3793561
32	0xbefd392f	-0.4945769
33	0x3e08fc91	0.13377596
34	0xbcec8c8b	-0.02887561
35	0x3bb91ced	0.0056492
36	0xbedf4d1e	-0.43613523
37	0x3de12e32	0.10995139
38	0xbf17ded0	-0.5932436
39	0x3f0b0651	0.54306513
40	0xbf015e93	-0.50534934
41	0x3edb6a87	0.4285471
42	0xbf1e23af	-0.617732
43	0x3edd9259	0.43275717
44	0xbf1a9600	-0.6038513
45	0xbe99b629	-0.3002179
46	0x3d80abef	0.06282794
47	0xbeb5574a	-0.3541816
48	0xbe2b46dd	-0.16726251
49	0x3ec0a8c9	0.37628773
50	0xbd8994d4	-0.0671784
51	0x3ed33c0b	0.41256747
52	0x3ee2d540	0.44303322
53	0xbdf12430	-0.1177448
54	0xbc8a530c	-0.016885303
55	0x3eed3b75	0.46334425
56	0x3e225663	0.15853266
57	0xbf563a53	-0.83682746
58	0x3ecf56d8	0.40495944
59	0xbe03555c	-0.12825531
60	0xbec3a18f	-0.38209197
61	0x3edd2314	0.43190825
62	0xbd19c6fd	-0.037543286
63	0xbe9f1e07	-0.31077597
64	0xbdde0b9b	-0.10842057
65	0xbef6f3fa	-0.48233014
66	0x3e9391e9	0.28822258
67	0xbddf97c8	-0.10917622
68	0xbcd6fa62	-0.026242439
69	0xbdc236ac	-0.09483084
70	0x3e9ece97	0.3101699
71	0xbe161745	-0.14657314
72	0xbe770ba5	-0.24125536
73	0xbc650818	-0.0139789805
74	0xbf3605c7	-0.71102566
75	0x3e1f991d	0.15585752
76	0x3e36928f	0.17829345
77	0x3eab0315	0.3340079
78	0x3d82b2be	0.063817486
79	0xbeaa4525	-0.33255878
80	0xbead248e	-0.33816952
81	0xbda39b9d	-0.07988665
82	0x3eb0c3ff	0.34524533
83	0xbe8b83e5	-0.27249065
84	0xbd68603c	-0.0567324
85	0xbc9c21f7	-0.019059164
86	0xbf095b8f	-0.5365533
87	0x3e39619b	0.1810364
88	0x3e648848	0.22317612
89	0xbda8b932	-0.08238448
90	0x3e90dba7	0.2829258
91	0x3f343df6	0.70407045
92	0xbe15c120	-0.14624453
93	0x3e05d937	0.13071142
94	0xbe00ef0b	-0.12591188
95	0xbbdda0ea	-0.006763567
96	0x3f007302	0.5017549
97	0xbe102932	-0.14078215
98	0xbec30ab4	-0.38094103
99	0xbee8a0d4	-0.45435202
100	0xbe9ef027	-0.31042597
101	0x3dfdbb91	0.12389291
102	0xbeed44f8	-0.4634168
103	0x3e05ac08	0.13053906
104	0x3f0ef94a	0.55849135
105	0xbe36bdcf	-0.17845844
106	0x3e1f5ec0	0.15563488
107	0xbc835164	-0.016030021
108	0x3f3309cd	0.6993683
109	0x3ecf8897	0.40533897
110	0xbe4b30c6	-0.19842824
111	0x3aaa46a1	0.001299102
112	0xbf6ddd88	-0.92916155
113	0xbdded3e4	-0.10880259
114	0x3df6215b	0.12018081
115	0x3e56f175	0.20990546
116	0x3e6c07cb	0.23049848
117	0x3f12474c	0.5714004
118	0x3caa9ef4	0.020827748
119	0xbd1c12ac	-0.038103744
120	0x3ec306d9	0.38091162
121	0xbe0134b0	-0.12617755
122	0xbeda197f	-0.42597577
123	0xbd80c6ae	-0.06287895
124	0xbd147cd2	-0.03625185
125	0xbedd5052	-0.43225342
126	0x3efa9006	0.48938006
127	0xbe878a2f	-0.26472613
128	0x3ea4e933	0.32209167
129	0x3ea362f3	0.3191143
130	0xbd9549ee	-0.072894916
131	0xbecce21f	-0.40016267
132	0x3e1225c7	0.14272223
133	0x3c0f37a9	0.008741298
134	0x3ea9e218	0.33180308
135	0xbe9869e3	-0.29768285
136	0xbe5c426b	-0.21509711
137	0x3eeebcf9	0.4662855
138	0x3e5cb3db	0.21552984
139	0x3ea74c4c	0.32675397
140	0xbcb9c689	-0.022677677
141	0xbe8f8522	-0.2803126
142	0x3dec80f6	0.11548035
143	0x3f378de5	0.7170089
144	0x3b972fed	0.0046138675
145	0x3e0e254f	0.1388142
146	0xbd229c1f	-0.03969967
147	0xbe16d2b6	-0.14728817
148	0xbc874271	-0.016511174
149	0x3f0bf79c	0.54674697
150	0xbef4575d	-0.47722903
151	0x3ee08280	0.43849564
152	0xbd3a891b	-0.04554091
153	0xbe8068df	-0.2508001
154	0x3e17d614	0.14827758
155	0x3e808443	0.25100908
156	0x3e24dc48	0.16099656
157	0xbf800a10	-1.0003071
158	0xbea025e5	-0.3127891
159	0x3e84d81e	0.25946134
160	0xbdf2e3ca	-0.118598536
161	0x3d36a6d7	0.044592705
162	0x3e5e01d2	0.21680382
163	0xbef69fa0	-0.4816866
164	0x3e638878	0.22220027
165	0xbef3adfc	-0.47593677
166	0xbefe66b5	-0.49687734
167	0xbe145f37	-0.14489447
168	0x3ecc71a0	0.3993044
169	0x3d838b7f	0.06423091
170	0x3f281d77	0.6566996
171	0x3e80a282	0.25123984
172	0x3f01bf82	0.5068284
173	0x3ea976c2	0.33098418
174	0x3db36037	0.08758586
175	0xbccc8a0a	-0.024968166
176	0x3e06fa74	0.13181478
177	0x3f4149d2	0.75503266
178	0xbe85f269	-0.26161507
179	0x3ea78106	0.32715625
180	0xbea7aba0	-0.32748127
181	0xbd8ecb6c	-0.069723934
182	0xbe70026b	-0.23438422
183	0x3e37d8e3	0.1795383
184	0x3f46e5d9	0.7769447
185	0xbf013cf9	-0.5048366
186	0xbd7655b5	-0.06014033
187	0x3d9ff582	0.07810499
188	0xbdcd2ed2	-0.10018696
189	0x3f5e090a	0.8673254
190	0x3cd79936	0.026318174
191	0x3cefe27d	0.029282803
192	0x3ec9a91e	0.3938684
193	0x3d6f821c	0.05847369
194	0xbf08ade1	-0.5339032
195	0xbd521f08	-0.051299125
196	0xbd79413d	-0.06085323
197	0xbf216d19	-0.63057095
198	0x3c1d74b3	0.009610343
199	0xbde09d43	-0.10967495
200	0xbe96c63b	-0.29448113
201	0x3e8eba77	0.27876636
202	0x3e90ae6a	0.28258067
203	0x3d1a62b6	0.037691794
204	0xbe28b5a3	-0.16475539
205	0x3ebe5624	0.37175095
206	0xbe007ff6	-0.12548813
207	0x3efe6470	0.49686003
208	0xbd4ee832	-0.050514407
209	0x3e0baba0	0.13639688
210	0x3ed67eb3	0.4189354
211	0x3e38ce3c	0.18047422
212	0x3db97dfd	0.090572335
213	0xbe981e3c	-0.29710567
214	0x3e94737f	0.28994367
215	0x3e494559	0.1965536
216	0xbdd5e891	-0.10444749
217	0x3e8d2446	0.27566737
218	0x3e7f34f7	0.24922548
219	0x3caff22a	0.021477778
220	0x3d8cf542	0.06882717
221	0xbeb364d2	-0.35037857
222	0xbebb160e	-0.36540264
223	0xbed636bf	-0.41838643
224	0x3ebba08d	0.36645928
225	0xbeffbee6	-0.4995033
226	0xbf127104	-0.572037
227	0x3f121efe	0.5707854
228	0xbee18131	-0.44043878
229	0x3eda59e3	0.42646703
230	0x3c0be792	0.008539097
231	0xbf0d650a	-0.552323
232	0xbe0ffb99	-0.1406082
233	0xbeb1055e	-0.34574407
234	0x3df101b7	0.11767905
235	0x3c9d89ec	0.019230805
236	0xbe50bc18	-0.20384252
237	0x3ee860b5	0.45386282
238	0x3f6028db	0.8756234
239	0x3e387562	0.18013528
240	0x3e5a98a9	0.21347298
241	0xbf14e4fe	-0.58161914
242	0xbe3ad78f	-0.18246292
243	0xbee30543	-0.44339952
244	0xbda9f388	-0.08298403
245	0xbd89bdb2	-0.06725635
246	0x3c0685f8	0.008210652
247	0x3e40e7e1	0.18838455
248	0x3df97a41	0.12181521
249	0xbe73af2c	-0.23797292
250	0x3f18f176	0.5974344
251	0x3e8db037	0.27673504
252	0x3e191763	0.14950328
253	0xbe60c202	-0.21949008
254	0xbef0a201	-0.469986
255	0x3e3f19e3	0.18662219

model.0.bias f4 [64]
0	0x3d6e7fe4	0.058227435
1	0xbeb223f3	-0.34793052
2	0xbf4ef798	-0.8084655
3	0xbe9e0a93	-0.30867442
4	0xbe598eaf	-0.21245836
5	0xbe3731a6	-0.17890033
6	0xbef281c1	-0.4736462
7	0xbefde6bd	-0.49590102
8	0xbde38139	-0.11108632
9	0x3e2b3029	0.1671759
10	0x3edfda24	0.43721116
11	0x3df7526b	0.12076267
12	0x3ea1880f	0.31549117
13	0xbe3fdadf	-0.18735836
14	0xbf2a490f	-0.6651773
15	0xbf34bc93	-0.7060024
16	0xbe5e1e9f	-0.21691369
17	0x3e6c12bb	0.2305402
18	0xbebb8e05	-0.3663179
19	0xbe87e1b4	-0.26539385
20	0xbdc3ac11	-0.095543034
21	0xbead6960	-0.33869457
22	0xbeb7fac7	-0.35933515
23	0xbf48ca21	-0.78433424
24	0xbe98dd62	-0.29856402
25	0xbf07fff1	-0.5312491
26	0xbee424d8	-0.4455936
27	0x3e9fc7e2	0.31207186
28	0x3e6c665f	0.23085926
29	0xbdafe519	-0.08588619
30	0xbf41b2b9	-0.75663334
31	0x3eb7c9fd	0.35896292
32	0x3d622c2b	0.055217903
33	0xbeb20edc	-0.34776962
34	0x3e543953	0.20724992
35	0xbec9ac9b	-0.393895
36	0xbebcb3b6	-0.3685586
37	0xbf368671	-0.7129889
38	0xbe659612	-0.22420529
39	0xbe896eeb	-0.26842436
40	0xbf0a7ad7	-0.5409369
41	0x3e879b92	0.26485878
42	0xbe61a634	-0.22036058
43	0x3dae5016	0.08511369
44	0x3ed560ba	0.4167536
45	0x3eb37aba	0.3505457
46	0x3d68b41e	0.056812398
47	0xbd460374	-0.048343137
48	0xbf145d3b	-0.5795476
49	0xbe555eb2	-0.20836905
50	0xbe4b2b96	-0.19840845
51	0xbefa5cf6	-0.4889905
52	0xbe8c38c5	-0.27387062
53	0x3d3feb15	0.04685505
54	0xbe1b8fa1	-0.15191509
55	0xbd0cc8f6	-0.03437134
56	0x3f1da756	0.6158346
57	0xbcd83f0f	-0.026397256
58	0x3f067364	0.5251982
59	0xbf229f16	-0.63523996
60	0xbe83f1d7	-0.25770447
61	0xbe0b9809	-0.13632216
62	0xbe4954be	-0.19661233
63	0xbf56b473	-0.83869094

model.2.weight f4 [32, 64]
0	0x3db5cfd5	0.088775314
1	0x3d8f0fc0	0.06985426
2	0xbda714f5	-0.08158294
3	0xbd26bd85	-0.040708084
4	0x3c36ac50	0.011149481
5	0xbe24c9da	-0.16092625
6	0xbda9d0c3	-0.08291771
7	0x3d6ebba9	0.058284435
8	0xbc379aa4	-0.011206303
9	0xbe19b786	-0.15011415
10	0xbd3c4304	-0.04596235
11	0xbe06a291	-0.13147952
12	0x3d53476d	0.05158179
13	0x3d8019a2	0.06254889
14	0xbd3e6ac6	-0.046488546
15	0x3cf84313	0.030305421
16	0xbd15fadb	-0.036616188
17	0xbcf7a1db	-0.030228546
18	0xbca60914	-0.020268
19	0xbc3f72d7	-0.011685095
20	0xbdfc9af2	-0.12334241
21	0x3d22510b	0.03962807
22	0x3d6783b6	0.056522094
23	0xbe4cdf6e	-0.20007107
24	0xbd5d28c8	-0.05399397
25	0xbd0a0e6f	-0.03370517
26	0xbdd8fdd7	-0.10595291
27	0xbe142c14	-0.1446994
28	0xbe100968	-0.14066088
29	0xbe258819	-0.16165198
30	0xbda0cb24	-0.07851246
31	0xbd5f21b1	-0.05447549
32	0xbca1cace	-0.019750025
33	0x3bcfee13	0.0063455193
34	0x3c312e9d	0.010814336
35	0xbe09a735	-0.1344269
36	0xbcb1caf9	-0.02170323
37	0xbdf5d956	-0.12004344
38	0xbc940a9c	-0.018071465
39	0xbd17d698	-0.037069887
40	0xbe012789	-0.12612738
41	0xbe0c332f	-0.136914
42	0x3d64a10c	0.05581765
43	0xbd9651de	-0.07339834
44	0xbe0b9bcf	-0.13633655
45	0xbe274011	-0.16333033
46	0x3a0a67b0	0.0005279733
47	0x3c16ca48	0.009203501
48	0xbe0c1691	-0.13680483
49	0xbd3a39cc	-0.045465276
50	0xbdb34171	-0.08752716
51	0xbd49d786	-0.049277805
52	0xbdc05d15	-0.09392754
53	0xbe334490	-0.17506623
54	0xbdbdd591	-0.0926925
55	0xbc280c1f	-0.010256796
56	0x3d2b821d	0.041872133
57	0xbcf6efdf	-0.030143676
58	0x3d71caad	0.059031177
59	0x3c727082	0.014797332
60	0xbdd8db4b	-0.10588702
61	0xbcdbefc0	-0.02684772
62	0xbcf52551	-0.02992502
63	0xbbc0fe92	-0.005889722
64	0xbe94afd9	-0.2904041
65	0xbe22acea	-0.15886274
66	0xbf20a6d5	-0.62754565
67	0x3e4bf81a	0.19918862
68	0xbec65f2f	-0.38744494
69	0xbe739eff	-0.23791121
70	0xbea0f7c4	-0.3143903
71	0xbd2bfe22	-0.041990407
72	0x3e5e9e51	0.2174008
73	0x3d54f77e	0.05199384
74	0x3e2b92f5	0.16755278
75	0xbd7dd991	-0.061975066
76	0x3eafe823	0.34356794
77	0x3f4c46b5	0.7979539
78	0xbb99bab8	-0.004691448
79	0x3e84722f	0.25868365
80	0x3daac2e5	0.083379544
81	0xbea23543	-0.3168126
82	0xbe74e961	-0.23917152
83	0xbef1684f	-0.47149894
84	0x3d9ab512	0.07554068
85	0xbec6cc30	-0.38827658
86	0x3f5c2d81	0.86006933
87	0x3d7fb48e	0.06242805
88	0x3e5644f4	0.20924741
89	0x3e83bbc9	0.25729206
90	0x3d9fc54d	0.07801304
91	0x3cb4cd53	0.022070562
92	0xbe93d616	-0.28874272
93	0xbdbbd38d	-0.091712095
94	0xbf72a138	-0.9477725
95	0x3d3a2f66	0.04545536
96	0x3d0ff379	0.035144303
97	0x3e2d6a6f	0.16935132
98	0xbfe9229f	-1.821369
99	0x3e6ecb80	0.23319817
100	0x3e9873fb	0.29775986
101	0x3e87c096	0.2651412
102	0xbd36ae52	-0.04459984
103	0xbeeb9995	-0.4601561
104	0x3dd39dac	0.10332808
105	0x3e5591a4	0.20856339
106	0x3f4b2061	0.7934628
107	0x3ec7d83f	0.3903217
108	0xbe7eed19	-0.24895133
109	0x3ea1c7fc	0.31597888
110	0xbc5fa5f9	-0.013650411
111	0x3d19932c	0.03749387
112	0x3d5fe7fb	0.054664593
113	0xbf1f22bf	-0.62162393
114	0x3d8157be	0.063155636
115	0xbf071bba	-0.5277668
116	0xbe22a257	-0.1588224
117	0x3c4ebb7c	0.012617942
118	0xbf10945b	-0.5647637
119	0xbe98249e	-0.29715437
120	0xbc940705	-0.018069753
121	0xbf086d65	-0.5329192
122	0x3e07dc8d	0.13267727
123	0xbf1ab6e0	-0.60435295
124	0xbbcf2028	-0.006320972
125	0xbe96523e	-0.2935962
126	0xbf7c3899	-0.9852386
127	0x3d827846	0.063705966
128	0x3f378480	0.71686554
129	0x3b2ef35d	0.0026695349
130	0x3f30f414	0.69122434
131	0xbde66deb	-0.11251434
132	0x3e925ea5	0.28587833
133	0x3ef5863d	0.47953978
134	0x3ed1d552	0.40983063
135	0x3c7c5f8c	0.0154036395
136	0x3ebd602f	0.36987445
137	0xbd1ac44f	-0.03778487
138	0xbf225093	-0.63404197
139	0x3ced6093	0.028976714
140	0xbe62ee19	-0.2216114
141	0xbdea2c8e	-0.114342794
142	0x3f28f358	0.65996313
143	0xbf48505c	-0.7824762
144	0xbe007301	-0.1254387
145	0xbe9a0e7b	-0.30089173
146	0x3e3f57cc	0.18685836
147	0xbce4cdec	-0.027930222
148	0xbd388145	-0.045045156
149	0x3e109e29	0.14122833
150	0xbf1a7c1f	-0.60345644
151	0xbe977b19	-0.29586104
152	0x3e2fcf32	0.17168882
153	0x3cd4888d	0.025944019
154	0xbe091214	-0.13385803
155	0xbe0909b0	-0.13382602
156	0x3ce35b3d	0.027753467
157	0x3d66ee9c	0.0563799
158	0xbcab22ef	-0.020890681
159	0xbd14ccdb	-0.036328178
160	0xbe0c5468	-0.13704073
161	0xbe837c0d	-0.2568058
162	0x3ca5ec80	0.020254374
163	0xbd868a31	-0.06569327
164	0x3e61b331	0.22041012
165	0x3d5bdc26	0.053676747
166	0xbe32a49c	-0.17445606
167	0x3e06d5c2	0.1316748
168	0x3ea3333c	0.31875026
169	0x3e7437c7	0.23849402
170	0xbf4bdecb	-0.7963683
171	0x3e989e6b	0.29808363
172	0xbfb076ab	-1.3786215
173	0xbf02ee39	-0.5114475
174	0xbe63eb63	-0.22257762
175	0x3e9634e0	0.29337215
176	0x3ed2e73b	0.4119204
177	0xbec873ea	-0.39150935
178	0xbffd8b60	-1.9808159
179	0xbf88e30d	-1.069429
180	0x3ea20aec	0.31648958
181	0x3db023a7	0.0860055
182	0xbeec52a9	-0.46156815
183	0xbe795370	-0.24348235
184	0x3dea4c58	0.11440343
185	0xbe812f09	-0.25231197
186	0xbd6e7d0f	-0.058224734
187	0xbe9efc1c	-0.3105172
188	0xbd587978	-0.052850217
189	0x3db75658	0.08952016
190	0x3c9590c2	0.018257502
191	0x3ca623c2	0.020280723
192	0x3e59ce8a	0.21270195
193	0xbe076d57	-0.13225304
194	0x3e0ead2e	0.1393325
195	0x3f21840c	0.6309211
196	0x3dc9b120	0.09848237
197	0x3c76e102	0.0150682945
198	0xbec5253f	-0.3850498
199	0x3e7d9396	0.24763331
200	0xbe49cd6c	-0.19707268
201	0xbdf95adc	-0.12175533
202	0x3cac2567	0.021013929
203	0x3eb36f6a	0.3504594
204	0xbef42792	-0.4768644
205	0x3ef490bf	0.47766683
206	0x3e0f970c	0.14022464
207	0x3dff7927	0.1247428
208	0xbd45dd96	-0.048307024
209	0x3e236d22	0.159596
210	0x3ecba20d	0.39772072
211	0xbdd06fbf	-0.10177564
212	0x3daf68aa	0.08564885
213	0xbf266a1f	-0.6500568
214	0x3e376e00	0.17913055
215	0x3ceb9089	0.028755443
216	0xbe09af7e	-0.13445851
217	0xbdfbd749	-0.12296922
218	0xbdf7680e	-0.12080394
219	0x3d6b4ab9	0.057444308
220	0x3e253b64	0.16135937
221	0xbda48c8e	-0.08034621
222	0x3e5ee5a1	0.21767284
223	0x3d7a4a94	0.06110628
224	0xbee77d8a	-0.45212966
225	0x3b947adf	0.004531249
226	0x3eb0f0eb	0.34558806
227	0x3dd7b248	0.10532051
228	0xbd256064	-0.04037513
229	0x3e669300	0.22517014
230	0xbe054c85	-0.13017471
231	0xbdc0e5a1	-0.09418798
232	0xbdbdb8bf	-0.09263753
233	0x3c641ec7	0.0139233535
234	0x3d9d5349	0.07681901
235	0xbe980aae	-0.29695648
236	0x3eea4f22	0.457635
237	0xbed00083	-0.4062539
238	0x3e87cb83	0.26522455
239	0x3db7efbb	0.08981272
240	0xbdcab7a7	-0.0989831
241	0xbd61720f	-0.055040415
242	0x3f0232c9	0.5085874
243	0x3e29646d	0.16542216
244	0x3dbec7ac	0.09315428
245	0xbe3b0629	-0.18264069
246	0xbee271a2	-0.4422732
247	0x3d755c4c	0.059902474
248	0xbe3e1681	-0.18563272
249	0x3dd7d0dc	0.10537884
250	0xbf001e16	-0.5004591
251	0xbf9299a8	-1.1453142
252	0xbd05592b	-0.03255574
253	0xbc91ce70	-0.017798632
254	0x3e40a9e9	0.18814816
255	0xbd9d2645	-0.07673315

model.2.bias f4 [32]
0	0xbd8e19de	-0.069385275
1	0x3dec5d01	0.115411766
2	0x3e5c273b	0.2149934
3	0xbe1f8a0f	-0.15580009
4	0xbecb5d85	-0.39719787
5	0xbe2d5d5a	-0.16930142
6	0x3d9d669b	0.07685586
7	0xbec3e1e8	-0.3825829
8	0xbd84aa19	-0.06477756
9	0xbc8668ec	-0.016407453
10	0xbdbe5cd0	-0.09295046
11	0xbdc5afc2	-0.09652664
12	0xbe035307	-0.12824641
13	0xbeeea8c0	-0.4661312
14	0x3f27b863	0.65515727
15	0xbd9acfb0	-0.075591445
16	0xbe11af9d	-0.14227147
17	0x3dfa73de	0.12229131
18	0x3db48a9c	0.088155
19	0x3dc53d10	0.096307874
20	0xbc6c4996	-0.014421841
21	0x3c9fb55e	0.019495662
22	0x3e4b02fa	0.19825354
23	0x3cf5216d	0.029923165
24	0x3dd4f8b6	0.10399
25	0xbedbad58	-0.42905688
26	0xbbeb6501	-0.0071836715
27	0xbe4b7d4d	-0.19872017
28	0xbeb0729a	-0.34462434
29	0xbe845aff	-0.25850675
30	0x3e901078	0.28137565
31	0x3e851207	0.25990316

model.4.weight f4 [1, 32]
0	0xbd9a41a9	-0.07532055
1	0xbec6b2c0	-0.3880825
2	0x3f591abb	0.8480641
3	0x3e290d70	0.16509032
4	0x3f18b342	0.59648526
5	0xbe0dde6b	-0.13854377
6	0xbe331b23	-0.1749082
7	0xbf1bfbbe	-0.60931003
8	0x3e8f5b7b	0.27999482
9	0x3e9b4307	0.30324575
10	0xbe5167c8	-0.20449746
11	0x3e5b6b77	0.21427713
12	0xbe144440	-0.1447916
13	0xbf16121e	-0.58621395
14	0xbec5eb7b	-0.3865622
15	0xbdcd4cf1	-0.10024441
16	0x3d135642	0.035970934
17	0x3e84e730	0.25957632
18	0xbe623e7b	-0.22094147
19	0x3e77ab55	0.24186452
20	0xbf45ac0c	-0.7721565
21	0x3d938794	0.07203594
22	0x3e7f5e58	0.24938333
23	0x3f131b56	0.57463586
24	0xbe24c676	-0.16091332
25	0x3e998d74	0.29990733
26	0x3f85b2a3	1.0445141
27	0xbf807adb	-1.0037493
28	0xbf6dcf11	-0.92894083
29	0x3e3e5901	0.1858864
30	0x3eb55995	0.35419908
31	0x3e489466	0.1958786
