FINAL/server/wildfire_nn_weights1.pth (torch, 13322 bytes, 5 tensors)

model.0.weight f4 [64, 7]
-0.16381465 0.017027542 -0.30220982 0.26396534 -0.5835529 0.33654654 -0.026584128 0.20871034
0.25993508 -0.5966618 0.5059359 -0.7689355 -0.27687594 -0.3567933 0.5752896 0.0835219
0.38526013 -0.14056455 0.7707017 0.18913198 0.5206875 0.22609746 0.07708358 0.64776325
0.17436792 0.4876655 0.6446194 0.10565416 -0.69344807 -0.37766948 -0.48196244 -0.17454362
-0.276307 -0.16361815 -0.03201165 -0.37816516 -0.19012356 0.74782467 -0.6407507 -0.11358556
0.47719315 -0.28821066 -0.36018115 -0.033362165 -0.10833211 0.1760125 0.43491167 -0.16595863
-0.14986394 0.59802455 0.3684624 0.07503107 0.27378607 0.10675897 0.13195258 0.018767603
-0.5738528 -0.8220102 0.089579634 -0.6116594 0.05199216 0.037529852 -0.56306285 -0.14898266
0.05459505 0.47035956 0.7746929 0.49360713 0.018512202 0.2579861 -0.39269626 -0.05872006
0.09646216 -0.07951285 -0.13544956 -0.15557495 0.30384552 0.010352721 0.08760126 -0.21392164
-0.2645369 -0.40696913 -0.38152024 -0.43220228 -0.13200556 0.46854767 -0.19722573 -0.66046244
0.26210773 -0.68032676 -0.006812868 0.1237935 0.11287348 -0.86498994 -0.10065169 -0.7821156
0.24214911 -0.48406142 0.054199334 -0.19583529 -0.077878036 0.9832184 0.5461078 0.12961526
0.23057696 0.033754706 -0.08760111 0.43612376 -0.0654598 -0.7704249 0.52452457 -0.3325307
0.17440654 -0.41306156 -0.36200616 -0.30184022 0.19883476 0.09801493 -0.8866964 -0.076014906
0.120212175 -0.18378095 -0.04556111 -0.5662012 0.7394249 0.30256823 0.15146251 0.1119278
0.08697438 -0.037455663 -0.012347569 -0.020396369 0.04407958 -0.040320158 -0.26150677 -0.26840898
-0.4250247 0.3148173 -0.25343773 0.13665387 -0.73031807 -0.19554654 0.32719392 -0.28717452
0.32887435 0.0304267 0.34626022 -0.46007788 0.23088191 0.1524228 -0.43521154 -0.5077328
0.3126919 -0.026280362 -0.23025426 -0.41391265 0.051255167 -0.20218545 -0.031628665 0.034353863
-0.21024053 0.35140178 0.2603155 -0.29611495 0.27796808 -0.10906935 0.4821098 -0.6805305
0.38018957 -1.6946615 0.13389994 -0.034998823 -0.04472378 -0.67773366 0.22556658 0.15313724
-0.38479376 -0.90597355 0.53838605 -0.55729127 0.32186624 -0.09967002 0.25043544 0.3813932
-0.3106695 0.8259607 -0.35722032 -0.067954525 -0.4773895 0.15062909 0.030672949 0.3415574
0.04783213 0.62036645 -0.20669489 -0.33810523 -0.35140836 -0.00943936 0.346416 0.18441878
0.34344602 0.64427257 0.15530315 -0.2291814 -1.1001972 0.15955482 -0.038098607 -0.30867574
-0.46568197 -0.07311318 0.59552115 -0.1205145 -0.5110865 0.69026226 -0.15588537 -0.23918751
0.07472209 -0.10268814 -0.65744317 0.37364686 -0.06050761 -0.2493108 -0.16060337 0.26784056
0.8219408 0.21401581 0.1503207 -0.30052045 -0.28573382 -0.5656699 -0.13869478 0.25484252
0.066204384 -0.13481447 -0.12817988 0.09376462 0.42164454 -0.24194114 -0.6214822 -0.33673444
-0.19242963 0.11238369 -0.14700797 0.3039285 -0.22386995 -0.26692382 -0.0807942 0.085936755
-0.28420597 -0.14610009 0.0064586787 0.5121193 -1.1309457 0.07120437 0.21913816 -0.10212231
00000000: 07bf 27be 587d 8b3c 3fbb 9abe 7726 873e
00000010: b963 15bf d44f ac3e f5c6 d9bc 2ab8 553e
00000020: 3616 853e d4be 18bf 0485 013f f5d8 44bf
00000030: afc2 8dbe 9dad b6be 2e46 133f 880d ab3d
00000040: d140 c53e 27f0 0fbe b54c 453f d0ab 413e
00000050: c74b 053f 1886 673e ffdd 9d3d d0d3 253f
00000060: 818d 323e 4baf f93e c705 253f 3561 d83d
00000070: d085 31bf e55d c1be c8c3 f6be 90bb 32be
00000080: 1c78 8dbe 848b 27be a61e 03bd dd9e c1be
00000090: c0af 42be 7071 3f3f 3d08 24bf 8c9f e8bd
000000a0: a952 f43e 5990 93be aa69 b8be c4a6 08bd
000000b0: 3add ddbd 9f3c 343e beac de3e 0ff1 29be
000000c0: ef75 19be 2318 193f 1ba7 bc3e e4a9 993d
000000d0: b02d 8c3e 72a4 da3d 941e 073e 84be 993c
000000e0: 04e8 12bf 436f 52bf 8775 b73d b695 1cbf
000000f0: bbf5 543d e7b8 193d e324 10bf e98e 18be
00000100: 0f9f 5f3d f8d2 f03e 4652 463f 13ba fc3e
00000110: e7a6 973c c116 843e 7c0f c9be 7284 70bd
00000120: f48d c53d a2d7 a2bd 4ab3 0abe 0a4f 1fbe
00000130: a491 9b3e 769e 293c 4a68 b33d 460e 5bbe
00000140: 6171 87be 425e d0be 9f56 c3be 9e49 ddbe
00000150: 772c 07be 7be5 ef3e 8bf5 49be 1114 29bf
00000160: fc32 863e e529 2ebf 7b3e dfbb 7287 fd3d
00000170: 362a e73d fb6f 5dbf 7922 cebd ba38 48bf
00000180: f0f5 773e e6d6 f7be 1f00 5e3d 0c89 48be
00000190: 857e 9fbd 33b4 7b3f b9cd 0b3f ddb9 043e
000001a0: 5e1c 6c3e 6042 0a3d 3668 b3bd 9d4b df3e
000001b0: ca0f 86bd 913a 45bf 3e47 063f 7741 aabe
000001c0: a197 323e ce7c d3be df58 b9be cd8a 9abe
000001d0: 579b 4b3e 0dbc c83d 89fe 62bf b4ad 9bbd
000001e0: cd31 f63d 1331 3cbe 499e 3abd 90f2 10bf
000001f0: f34a 3d3f 39ea 9a3e fd18 1b3e 673a e53d
00000200: a01f b23d 1c6b 19bd 754d 4abc 4916 a7bc
00000210: ca8c 343d c026 25bd 37e4 85be e76c 89be
00000220: d69c d9be bc2f a13e 97c2 81be feee 0b3e
00000230: 20f6 3abf 5a3d 48be f685 a73e 8a08 93be
00000240: 3862 a83e 6a41 f93c 0549 b13e 548f ebbe
00000250: 4f6c 6c3e b914 1c3e 0cd4 debe c7fa 01bf
00000260: 2719 a03e ea49 d7bc c6c7 6bbe 5cec d3be
00000270: f0f0 513d b409 4fbe 0f8d 01bd a3b6 0c3d
00000280: 4b49 57be efea b33e 1348 853e 619c 97be
00000290: d551 8e3e c05f dfbd 19d7 f63e 3f37 2ebf
000002a0: 35a8 c23e abea d8bf 111d 093e ed5a 0fbd
000002b0: 4830 37bd f47f 2dbf edfa 663e 02d0 1c3e
000002c0: b003 c5be e2ed 67bf abd3 093f a4aa 0ebf
000002d0: a7cb a43e cc1f ccbd 1339 803e f845 c33e
000002e0: 1310 9fbe 2972 533f 95e5 b6be be2b 8bbd
000002f0: 666c f4be 833e 1a3e d645 fb3c 9de0 ae3e
00000300: a0eb 433d 56d0 1e3f d3a7 53be 211c adbe
00000310: cceb b3be 8ca7 1abc 705d b13e 47d8 3c3e
00000320: 28d8 af3e 0cef 243f ca07 1f3e 87ae 6abe
00000330: 43d3 8cbf 5762 233e 490d 1cbd bf0a 9ebe
00000340: de6d eebe 5dbc 95bd 1374 183f 4ed0 f6bd
00000350: 91d6 02bf 07b5 303f 6aa0 1fbe 92ed 74be
00000360: e507 993d 294e d2bd 324e 28bf a44e bf3e
00000370: d4d6 77bd 554b 7fbe 3675 24be 6622 893e
00000380: b66a 523f f626 5b3e abed 193e d1dd 99be
00000390: b44b 92be becf 10bf 0106 0ebe b87a 823e
000003a0: 2a96 873d ce0c 0abe 9641 03be aa07 c03d
000003b0: cbe1 d73e 6bbf 77be 7519 1fbf 7568 acbe
000003c0: 460c 45be 6c29 e63d 4289 16be 849c 9b3e
000003d0: 2a3e 65be 3daa 88be 6e77 a5bd 9cff af3d
000003e0: 7283 91be 439b 15be 53a3 d33b 401a 033f
000003f0: d4c2 90bf 99d3 913d c165 603e 8025 d1bd

model.0.bias f4 [64]
0.41096786 0.05495662 -0.8219265 -0.79900956 -0.32480174 -0.86412627 0.16068833 -0.53592306
-0.3456155 -0.98445565 -0.39672366 0.31512335 -0.003192866 -0.35405532 -0.22542801 -0.41183513
-0.736567 0.23415282 0.047532152 0.27373153 -0.37117407 -0.11244672 0.31849167 -0.71721447
-0.61105853 0.2277512 -0.5675613 -0.30686003 0.045053273 -0.98990464 0.43277285 0.15982231
0.25218046 0.47253194 0.059911102 0.033295285 -0.6034918 -0.76667076 -0.5906585 -0.34042946
-0.48058063 -0.58778346 -0.012196918 0.17997487 -0.2522805 -0.4366571 -0.21044433 0.15775828
0.0117074745 -0.96575224 0.1984129 0.037223637 -0.85083735 -0.88476837 -0.6115111 -0.30323192
0.029475393 -0.46207714 -0.28692672 -0.3744812 -0.28718594 -0.53741324 -0.29658386 -0.92879486
00000000: 616a d23e 311a 613d c669 52bf e48b 4cbf
00000010: 6a4c a6be 6137 5dbf 7b8b 243e 4132 09bf
00000020: 84f4 b0be 4905 7cbf 5d1f cbbe d957 a13e
00000030: 673f 51bb bd46 b5be 9ad6 66be 0edc d2be
00000040: a88f 3cbf c2c5 6f3e 13b1 423d 8a26 8c3e
00000050: 870a bebe 774a e6bd 5711 a33e 5e9b 37bf
00000060: 556e 1cbf 9c37 693e b34b 11bf c21c 9dbe
00000070: c889 383d 646a 7dbf 6794 dd3e 76a8 233e
00000080: cc1d 813e b5ef f13e 5865 753d a360 083d
00000090: 707e 1abf 8944 44bf 6535 17bf c54c aebe
000000a0: aa0e f6be fa78 16bf 95d5 47bc 554b 383e
000000b0: e92a 81be 8591 dfbe b87e 57be 638b 213e
000000c0: b5d0 3f3c 8a3b 77bf c02c 4b3e d077 183d
000000d0: 7ad0 59bf 2e80 62bf fe8b 1cbf 3741 9bbe
000000e0: 6176 f13c 6095 ecbe 0fe8 92be 00bc bfbe
000000f0: 090a 93be ea93 09bf d7d9 97be 80c5 6dbf

model.2.weight f4 [32, 64]
0.3121664 -0.58414215 -0.041989755 0.13893394 -0.1153743 -1.2710513 -0.062637866 -0.23082143
0.14634289 -0.628893 -0.6711741 -0.1637405 0.19787975 0.38934353 0.62470746 0.08329482
0.15795583 0.14724116 0.2080972 -0.22637978 0.19322754 -0.009901758 -0.29903945 0.38533744
-0.32207328 -0.04284443 0.26842716 0.18820013 0.18549927 -0.8182777 -0.26552325 -0.30215096
0.47059715 0.011182129 0.07003774 -0.42914787 -0.39096832 0.17053938 -0.27219498 0.06520777
0.9053577 -1.1261805 0.08741456 0.5224901 0.30961433 0.37901825 -0.29578522 0.302038
0.15509188 -0.46035898 -0.09462758 -0.06587776 -0.81512487 0.024631651 0.063978314 0.007434929
-0.075925805 -0.05964583 -0.4287969 -1.0032331 -0.029921679 -0.6915038 0.17995724 0.08572763
0.051003072 -0.04296833 1.2225008 -1.119936 -0.0025042677 0.95338476 0.25321934 0.49964762
0.12806535 0.43695807 -0.086595766 -0.21096669 0.24818197 0.41284803 0.34740278 0.46658137
-0.05463921 0.29438806 -0.004719746 0.0479463 -0.018374478 0.17758329 0.16492587 0.8141678
-1.4662129 0.2909242 -0.21855935 -0.08091194 -0.06558539 0.0078067267 -1.0518819 0.32233384
-3.0900931 -0.0133885145 0.073953964 0.14622836 -0.05412407 0.34463307 -0.7905642 -0.12702829
0.83884114 0.036198318 0.15778154 -1.1140561 0.06452782 0.30684277 -0.9071021 -0.07653793
-0.6072136 -0.38056904 -0.27495834 -0.09182242 -0.76635873 0.6914022 -0.11086336 0.28784916
-0.27916175 0.28523508 -0.58784384 -0.12972389 -0.58843166 -0.16110763 -0.13418667 0.20624226
0.07271503 0.043111973 0.52090716 -0.13979107 0.047416907 0.10589376 0.11822147 -0.301241
-0.43763813 -0.7164601 -2.4050257 -1.3070956 0.574166 -0.12676047 0.67225844 0.6200647
0.32281473 0.12094057 0.019813888 -0.049312 -0.1914463 0.16895384 0.12704057 -0.20405594
0.21786332 -0.12809196 0.16398256 -0.022780493 0.007885559 0.34336853 -0.25391674 -1.7844096
0.22286609 -0.14865598 0.026509427 -0.020234585 -0.08761698 0.5367678 0.15321803 0.42232755
-3.127253 -0.6591407 0.12742156 0.26831815 0.25237912 0.753346 -0.3016054 0.025326096
-0.5420554 -0.09133315 -0.25149646 0.06716253 0.1829762 0.56166255 -0.010490108 -0.14317955
0.21760976 0.17868665 -0.038939286 -0.7895954 -0.6468649 0.08470176 0.79483277 -0.20660491
-0.41592315 0.075453006 -0.40509623 -0.84009486 -0.0077073094 -0.602032 0.09483671 0.1458398
-0.44348145 -0.8517578 0.33123562 -0.15054289 -0.5314889 0.4629684 0.07366867 0.64093614
-0.036329884 -0.24565192 -0.03622166 0.21394221 0.7463142 -0.2778378 0.047106475 0.2798894
0.1380342 0.08137031 0.19067258 -0.62461114 0.33384058 -1.8953869 0.10662855 0.049547564
0.15578443 -0.19504933 0.3175352 0.1836988 -0.34129936 0.46504754 0.115240246 -0.86777955
0.38829157 -0.08853366 0.3198073 -0.13446385 0.5897132 -1.3358755 0.16508318 -0.099699944
0.45203796 -0.06681401 0.17768478 0.103596404 0.27259338 -0.42894772 -0.16275905 -0.343451
0.029609352 -0.5935704 0.3867184 -1.42434 -0.9413976 -0.062196877 -0.13409668 -0.0013803545
00000000: 46d4 9f3e 578a 15bf 73fd 2bbd b344 0e3e
00000010: 5c49 ecbd cfb1 a2bf 4848 80bd 745c 6cbe
00000020: e9da 153e 22ff 20bf 11d2 2bbf 97ab 27be
00000030: fda0 4a3e 0958 c73e d4ec 1f3f 7996 aa3d
00000040: 2cbf 213e 63c6 163e 6f17 553e 1ad0 67be
00000050: 71dd 453e fc3a 22bc b31b 99be f34a c53e
00000060: cae6 a4be a47d 2fbd 496f 893e 89b7 403e
00000070: 85f3 3d3e a67a 51bf aaf2 87be 88b3 9abe
00000080: 1cf2 f03e 4035 373c f26f 8f3d 45b9 dbbe
00000090: 002d c8be e0a1 2e3e 245d 8bbe a78b 853d
000000a0: 86c5 673f af26 90bf 6806 b33d e9c1 053f
000000b0: c585 9e3e ae0e c23e 2971 97be baa4 9a3e
000000c0: 68d0 1e3e 2cb4 ebbe 1bcc c1bd ebea 86bd
000000d0: 06ac 50bf 51c8 c93c 1007 833d b4a0 f33b
000000e0: fd7e 9bbd 304f 74bd 448b dbbe f169 80bf
000000f0: 4f1e f5bc 6506 31bf b646 383e f891 af3d
00000100: 99e8 503d 8fff 2fbd e87a 9c3f 105a 8fbf
00000110: a41e 24bb 0611 743f f7a5 813e d0d1 ff3e
00000120: 9023 033e f8b8 df3e 1f59 b1bd a707 58be
00000130: 6a23 7e3e d160 d33e c7de b13e c1e3 ee3e
00000140: 5dcd 5fbd 08ba 963e 19a8 9abb 5763 443d
00000150: 1386 96bc 65d8 353e 54e2 283e 4d6d 503f
00000160: ddac bbbf 04f4 943e 06ce 5fbe 29b5 a5bd
00000170: a251 86bd 92cf ff3b 11a4 86bf f108 a53e
00000180: 16c4 45c0 805b 5bbc 2d75 973d e3bc 153e
00000190: 33b1 5dbd bf73 b03e 6a62 4abf b413 02be
000001a0: 4bbe 563f b044 143d 7c91 213e 6499 8ebf
000001b0: 2927 843d 7f1a 9d3e d837 68bf ebbf 9cbd
000001c0: 5a72 1bbf f2d9 c2be 57c7 8cbe 650d bcbd
000001d0: 1630 44bf bcff 303f 540c e3bd f760 933e
000001e0: 4aee 8ebe 550a 923e ef7c 16bf 57d6 04be
000001f0: 75a3 16bf 66f9 24be 3b68 09be 2c31 533e
00000200: 9eeb 943d 2e96 303d 2c5a 053f 6425 0fbe
00000210: 3b38 423d d4de d83d 191e f23d 433c 9abe
00000220: 1b12 e0be ee69 37bf f1eb 19c0 e94e a7bf
00000230: 8bfc 123f 7fcd 01be 2119 2c3f 8fbc 1e3f
00000240: f947 a53e b1af f73d bc50 a23c 61fb 49bd
00000250: 800a 44be 3c02 2d3e ec16 023e 0af4 50be
00000260: 9017 5f3e 8a2a 03be 0beb 273e 289e babc
00000270: 6f32 013c 00ce af3e 6001 82be 8967 e4bf
00000280: 0237 643e 4639 18be 4c2a d93c 00c3 a5bc
00000290: 8870 b3bd 9d69 093f 30e5 1c3e 513b d83e
000002a0: ea24 48c0 72bd 28bf cc7a 023e ff60 893e
000002b0: d637 813e 49db 403f 066c 9abe ac78 cf3c
000002c0: 25c4 0abf e00c bbbd 25c4 80be 828c 893d
000002d0: 1d5e 3b3e 1ec9 0f3f b4de 2bbc a99d 12be
000002e0: 18d5 5e3e a2f9 363e cd7e 1fbd ed22 4abf
000002f0: f098 25bf 1e78 ad3d 297a 4b3f 3d90 53be
00000300: e1f3 d4be 1b87 9a3d c668 cfbe 7510 57bf
00000310: 998d fcbb c51e 1abf c039 c23d 0757 153e
00000320: 0010 e3be cd0c 5abf b797 a93e ea27 1abe
00000330: a80f 08bf 320a ed3e 9adf 963d 6414 243f
00000340: a5ce 14bd 2d8c 7bbe 2a5d 14bd ab13 5b3e
00000350: 730e 3f3f c240 8ebe b8f2 403d aa4d 8f3e
00000360: d658 0d3e 7aa5 a63d ac3f 433e 84e6 1fbf
00000370: 27ed aa3e 0a9c f2bf 1260 da3d 63f2 4a3d
00000380: f485 1f3e 03bb 47be f993 a23e 8a1b 3c3e
00000390: cabe aebe b61a ee3e 1403 ec3d cd26 5ebf
000003a0: 27ce c63e 2351 b5bd c8bd a33e e4b0 09be
000003b0: 72f7 163f f8fd aabf 910b 293e 7c2f ccbd
000003c0: 8571 e73e c9d5 88bd 00f3 353e 5a2a d43d
000003d0: 5c91 8b3e 099f dbbe 4faa 26be cfd8 afbe
000003e0: 508f f23c 3bf4 17bf f4ff c53e c650 b6bf
000003f0: 6fff 70bf 27c2 7ebd a450 09be 03ed b4ba

model.2.bias f4 [32]
0.51656824 -0.086878605 0.04041342 0.23304543 0.20570959 -0.09305786 0.09175718 -0.17189807
0.07481464 -0.33241302 -0.03974359 0.26527676 -0.06962298 0.020884432 -0.13590465 0.13789657
-0.069677345 -0.87493247 -0.45387742 -0.17444892 -0.05639042 0.008770638 -0.41440195 0.20084958
-0.0894878 0.36669526 -0.10471208 -0.16588195 0.1965261 0.19532533 -0.0377956 0.12302202
00000000: d13d 043f 69ed b1bd 8b88 253d 76a3 6e3e
00000010: 89a5 523e 1f95 bebd 30eb bb3d 0c06 30be
00000020: 6b38 993d 0a32 aabe 2dca 22bd 5bd2 873e
00000030: 7e96 8ebd d415 ab3c 972a 0bbe c234 0d3e
00000040: ffb2 8ebd 93fb 5fbf 9f62 e8be bda2 32be
00000050: a4f9 66bd b9b2 0f3c 7e2c d4be 83ab 4d3e
00000060: 6145 b7bd 7bbf bb3e 4973 d6bd f5dc 29be
00000070: 233e 493e 5d03 483e 8fcf 1abd f8f2 fb3d

model.4.weight f4 [1, 32]
0.24647471 0.49623445 0.29152346 0.4092039 -0.4251951 0.00047517914 0.12581448 0.2451445
0.9260295 -0.6765229 0.13002656 0.17023715 0.3866451 0.50141376 -0.2201798 0.2686891
0.34878573 -0.91582525 0.8068194 0.28467658 -1.9228632 0.22112395 -0.9145786 -0.27871114
0.012718208 -0.3644649 0.2954063 0.091989525 0.42950246 -0.29235515 1.2350296 0.41269886
00000000: de63 7c3e 7112 fe3e 9042 953e 2c83 d13e
00000010: 2cb3 d9be 7721 f939 83d5 003e 2907 7b3e
00000020: 4510 6d3f 9b30 2dbf af25 053e a652 2e3e
00000030: 59f6 c53e a75c 003f d076 61be 9e91 893e
00000040: 0b94 b23e 8673 6abf b78b 4e3f 21c1 913e
00000050: 6220 f6bf 516e 623e d321 6abf 3ab3 8ebe
00000060: 0860 503c 259b babe 7f3f 973e 0165 bc3d
00000070: bfe7 db3e 93af 95be 7315 9e3f 444d d33e
